node {
  name: "global_step/Initializer/zeros"
  op: "Const"
  attr {
    key: "_class"
    value {
      list {
        s: "loc:@global_step"
      }
    }
  }
  attr {
    key: "_output_shapes"
    value {
      list {
        shape {
        }
      }
    }
  }
  attr {
    key: "dtype"
    value {
      type: DT_INT64
    }
  }
  attr {
    key: "value"
    value {
      tensor {
        dtype: DT_INT64
        tensor_shape {
        }
        int64_val: 0
      }
    }
  }
}
node {
  name: "global_step"
  op: "VariableV2"
  attr {
    key: "_class"
    value {
      list {
        s: "loc:@global_step"
      }
    }
  }
  attr {
    key: "_output_shapes"
    value {
      list {
        shape {
        }
      }
    }
  }
  attr {
    key: "container"
    value {
      s: ""
    }
  }
  attr {
    key: "dtype"
    value {
      type: DT_INT64
    }
  }
  attr {
    key: "shape"
    value {
      shape {
      }
    }
  }
  attr {
    key: "shared_name"
    value {
      s: ""
    }
  }
}
node {
  name: "global_step/Assign"
  op: "Assign"
  input: "global_step"
  input: "global_step/Initializer/zeros"
  attr {
    key: "T"
    value {
      type: DT_INT64
    }
  }
  attr {
    key: "_class"
    value {
      list {
        s: "loc:@global_step"
      }
    }
  }
  attr {
    key: "_output_shapes"
    value {
      list {
        shape {
        }
      }
    }
  }
  attr {
    key: "use_locking"
    value {
      b: true
    }
  }
  attr {
    key: "validate_shape"
    value {
      b: true
    }
  }
}
node {
  name: "global_step/read"
  op: "Identity"
  input: "global_step"
  attr {
    key: "T"
    value {
      type: DT_INT64
    }
  }
  attr {
    key: "_class"
    value {
      list {
        s: "loc:@global_step"
      }
    }
  }
  attr {
    key: "_output_shapes"
    value {
      list {
        shape {
        }
      }
    }
  }
}
node {
  name: "global_step/IsVariableInitialized"
  op: "IsVariableInitialized"
  input: "global_step"
  attr {
    key: "_class"
    value {
      list {
        s: "loc:@global_step"
      }
    }
  }
  attr {
    key: "_output_shapes"
    value {
      list {
        shape {
        }
      }
    }
  }
  attr {
    key: "dtype"
    value {
      type: DT_INT64
    }
  }
}
node {
  name: "global_step/cond/Switch"
  op: "Switch"
  input: "global_step/IsVariableInitialized"
  input: "global_step/IsVariableInitialized"
  attr {
    key: "T"
    value {
      type: DT_BOOL
    }
  }
  attr {
    key: "_output_shapes"
    value {
      list {
        shape {
        }
        shape {
        }
      }
    }
  }
}
node {
  name: "global_step/cond/switch_t"
  op: "Identity"
  input: "global_step/cond/Switch:1"
  attr {
    key: "T"
    value {
      type: DT_BOOL
    }
  }
  attr {
    key: "_output_shapes"
    value {
      list {
        shape {
        }
      }
    }
  }
}
node {
  name: "global_step/cond/switch_f"
  op: "Identity"
  input: "global_step/cond/Switch"
  attr {
    key: "T"
    value {
      type: DT_BOOL
    }
  }
  attr {
    key: "_output_shapes"
    value {
      list {
        shape {
        }
      }
    }
  }
}
node {
  name: "global_step/cond/pred_id"
  op: "Identity"
  input: "global_step/IsVariableInitialized"
  attr {
    key: "T"
    value {
      type: DT_BOOL
    }
  }
  attr {
    key: "_output_shapes"
    value {
      list {
        shape {
        }
      }
    }
  }
}
node {
  name: "global_step/cond/read"
  op: "Identity"
  input: "global_step/cond/read/Switch:1"
  attr {
    key: "T"
    value {
      type: DT_INT64
    }
  }
  attr {
    key: "_output_shapes"
    value {
      list {
        shape {
        }
      }
    }
  }
}
node {
  name: "global_step/cond/read/Switch"
  op: "RefSwitch"
  input: "global_step"
  input: "global_step/cond/pred_id"
  attr {
    key: "T"
    value {
      type: DT_INT64
    }
  }
  attr {
    key: "_class"
    value {
      list {
        s: "loc:@global_step"
      }
    }
  }
  attr {
    key: "_output_shapes"
    value {
      list {
        shape {
        }
        shape {
        }
      }
    }
  }
}
node {
  name: "global_step/cond/Switch_1"
  op: "Switch"
  input: "global_step/Initializer/zeros"
  input: "global_step/cond/pred_id"
  attr {
    key: "T"
    value {
      type: DT_INT64
    }
  }
  attr {
    key: "_class"
    value {
      list {
        s: "loc:@global_step"
      }
    }
  }
  attr {
    key: "_output_shapes"
    value {
      list {
        shape {
        }
        shape {
        }
      }
    }
  }
}
node {
  name: "global_step/cond/Merge"
  op: "Merge"
  input: "global_step/cond/Switch_1"
  input: "global_step/cond/read"
  attr {
    key: "N"
    value {
      i: 2
    }
  }
  attr {
    key: "T"
    value {
      type: DT_INT64
    }
  }
  attr {
    key: "_output_shapes"
    value {
      list {
        shape {
        }
        shape {
        }
      }
    }
  }
}
node {
  name: "global_step/add/y"
  op: "Const"
  attr {
    key: "_output_shapes"
    value {
      list {
        shape {
        }
      }
    }
  }
  attr {
    key: "dtype"
    value {
      type: DT_INT64
    }
  }
  attr {
    key: "value"
    value {
      tensor {
        dtype: DT_INT64
        tensor_shape {
        }
        int64_val: 0
      }
    }
  }
}
node {
  name: "global_step/add"
  op: "Add"
  input: "global_step/cond/Merge"
  input: "global_step/add/y"
  attr {
    key: "T"
    value {
      type: DT_INT64
    }
  }
  attr {
    key: "_output_shapes"
    value {
      list {
        shape {
        }
      }
    }
  }
}
node {
  name: "tensors/component_0"
  op: "Const"
  device: "/device:CPU:0"
  attr {
    key: "_output_shapes"
    value {
      list {
        shape {
        }
      }
    }
  }
  attr {
    key: "dtype"
    value {
      type: DT_INT32
    }
  }
  attr {
    key: "value"
    value {
      tensor {
        dtype: DT_INT32
        tensor_shape {
        }
        int_val: 0
      }
    }
  }
}
node {
  name: "buffer_size"
  op: "Const"
  device: "/device:CPU:0"
  attr {
    key: "_output_shapes"
    value {
      list {
        shape {
        }
      }
    }
  }
  attr {
    key: "dtype"
    value {
      type: DT_INT64
    }
  }
  attr {
    key: "value"
    value {
      tensor {
        dtype: DT_INT64
        tensor_shape {
        }
        int64_val: 10
      }
    }
  }
}
node {
  name: "seed"
  op: "Const"
  device: "/device:CPU:0"
  attr {
    key: "_output_shapes"
    value {
      list {
        shape {
        }
      }
    }
  }
  attr {
    key: "dtype"
    value {
      type: DT_INT64
    }
  }
  attr {
    key: "value"
    value {
      tensor {
        dtype: DT_INT64
        tensor_shape {
        }
        int64_val: 0
      }
    }
  }
}
node {
  name: "seed2"
  op: "Const"
  device: "/device:CPU:0"
  attr {
    key: "_output_shapes"
    value {
      list {
        shape {
        }
      }
    }
  }
  attr {
    key: "dtype"
    value {
      type: DT_INT64
    }
  }
  attr {
    key: "value"
    value {
      tensor {
        dtype: DT_INT64
        tensor_shape {
        }
        int64_val: 0
      }
    }
  }
}
node {
  name: "count"
  op: "Const"
  device: "/device:CPU:0"
  attr {
    key: "_output_shapes"
    value {
      list {
        shape {
        }
      }
    }
  }
  attr {
    key: "dtype"
    value {
      type: DT_INT64
    }
  }
  attr {
    key: "value"
    value {
      tensor {
        dtype: DT_INT64
        tensor_shape {
        }
        int64_val: -1
      }
    }
  }
}
node {
  name: "num_parallel_calls"
  op: "Const"
  device: "/device:CPU:0"
  attr {
    key: "_output_shapes"
    value {
      list {
        shape {
        }
      }
    }
  }
  attr {
    key: "dtype"
    value {
      type: DT_INT32
    }
  }
  attr {
    key: "value"
    value {
      tensor {
        dtype: DT_INT32
        tensor_shape {
        }
        int_val: 64
      }
    }
  }
}
node {
  name: "batch_size"
  op: "Const"
  device: "/device:CPU:0"
  attr {
    key: "_output_shapes"
    value {
      list {
        shape {
        }
      }
    }
  }
  attr {
    key: "dtype"
    value {
      type: DT_INT64
    }
  }
  attr {
    key: "value"
    value {
      tensor {
        dtype: DT_INT64
        tensor_shape {
        }
        int64_val: 8
      }
    }
  }
}
node {
  name: "drop_remainder"
  op: "Const"
  device: "/device:CPU:0"
  attr {
    key: "_output_shapes"
    value {
      list {
        shape {
        }
      }
    }
  }
  attr {
    key: "dtype"
    value {
      type: DT_BOOL
    }
  }
  attr {
    key: "value"
    value {
      tensor {
        dtype: DT_BOOL
        tensor_shape {
        }
        bool_val: false
      }
    }
  }
}
node {
  name: "buffer_size_1"
  op: "Const"
  device: "/device:CPU:0"
  attr {
    key: "_output_shapes"
    value {
      list {
        shape {
        }
      }
    }
  }
  attr {
    key: "dtype"
    value {
      type: DT_INT64
    }
  }
  attr {
    key: "value"
    value {
      tensor {
        dtype: DT_INT64
        tensor_shape {
        }
        int64_val: 8
      }
    }
  }
}
node {
  name: "optimizations"
  op: "Const"
  attr {
    key: "_output_shapes"
    value {
      list {
        shape {
          dim {
            size: 3
          }
        }
      }
    }
  }
  attr {
    key: "dtype"
    value {
      type: DT_STRING
    }
  }
  attr {
    key: "value"
    value {
      tensor {
        dtype: DT_STRING
        tensor_shape {
          dim {
            size: 3
          }
        }
        string_val: "map_and_batch_fusion"
        string_val: "noop_elimination"
        string_val: "shuffle_and_repeat_fusion"
      }
    }
  }
}
node {
  name: "IteratorV2"
  op: "IteratorV2"
  attr {
    key: "_output_shapes"
    value {
      list {
        shape {
        }
      }
    }
  }
  attr {
    key: "container"
    value {
      s: ""
    }
  }
  attr {
    key: "output_shapes"
    value {
      list {
        shape {
          dim {
            size: -1
          }
          dim {
            size: 256
          }
          dim {
            size: 256
          }
          dim {
            size: 1
          }
        }
        shape {
          dim {
            size: -1
          }
          dim {
            size: 256
          }
          dim {
            size: 256
          }
          dim {
            size: 1
          }
        }
      }
    }
  }
  attr {
    key: "output_types"
    value {
      list {
        type: DT_FLOAT
        type: DT_FLOAT
      }
    }
  }
  attr {
    key: "shared_name"
    value {
      s: ""
    }
  }
}
node {
  name: "TensorDataset"
  op: "TensorDataset"
  input: "tensors/component_0"
  attr {
    key: "Toutput_types"
    value {
      list {
        type: DT_INT32
      }
    }
  }
  attr {
    key: "_class"
    value {
      list {
        s: "loc:@IteratorV2"
      }
    }
  }
  attr {
    key: "_output_shapes"
    value {
      list {
        shape {
        }
      }
    }
  }
  attr {
    key: "output_shapes"
    value {
      list {
        shape {
        }
      }
    }
  }
}
node {
  name: "FlatMapDataset"
  op: "FlatMapDataset"
  input: "TensorDataset"
  attr {
    key: "Targuments"
    value {
      list {
      }
    }
  }
  attr {
    key: "_class"
    value {
      list {
        s: "loc:@IteratorV2"
      }
    }
  }
  attr {
    key: "_output_shapes"
    value {
      list {
        shape {
        }
      }
    }
  }
  attr {
    key: "f"
    value {
      func {
        name: "Dataset_flat_map_flat_map_fn_21"
      }
    }
  }
  attr {
    key: "output_shapes"
    value {
      list {
        shape {
          dim {
            size: 256
          }
          dim {
            size: 256
          }
        }
        shape {
          dim {
            size: 256
          }
          dim {
            size: 256
          }
        }
      }
    }
  }
  attr {
    key: "output_types"
    value {
      list {
        type: DT_UINT8
        type: DT_UINT8
      }
    }
  }
}
node {
  name: "ShuffleDataset"
  op: "ShuffleDataset"
  input: "FlatMapDataset"
  input: "buffer_size"
  input: "seed"
  input: "seed2"
  attr {
    key: "_class"
    value {
      list {
        s: "loc:@IteratorV2"
      }
    }
  }
  attr {
    key: "_output_shapes"
    value {
      list {
        shape {
        }
      }
    }
  }
  attr {
    key: "output_shapes"
    value {
      list {
        shape {
          dim {
            size: 256
          }
          dim {
            size: 256
          }
        }
        shape {
          dim {
            size: 256
          }
          dim {
            size: 256
          }
        }
      }
    }
  }
  attr {
    key: "output_types"
    value {
      list {
        type: DT_UINT8
        type: DT_UINT8
      }
    }
  }
  attr {
    key: "reshuffle_each_iteration"
    value {
      b: true
    }
  }
}
node {
  name: "RepeatDataset"
  op: "RepeatDataset"
  input: "ShuffleDataset"
  input: "count"
  attr {
    key: "_class"
    value {
      list {
        s: "loc:@IteratorV2"
      }
    }
  }
  attr {
    key: "_output_shapes"
    value {
      list {
        shape {
        }
      }
    }
  }
  attr {
    key: "output_shapes"
    value {
      list {
        shape {
          dim {
            size: 256
          }
          dim {
            size: 256
          }
        }
        shape {
          dim {
            size: 256
          }
          dim {
            size: 256
          }
        }
      }
    }
  }
  attr {
    key: "output_types"
    value {
      list {
        type: DT_UINT8
        type: DT_UINT8
      }
    }
  }
}
node {
  name: "ParallelMapDataset"
  op: "ParallelMapDataset"
  input: "RepeatDataset"
  input: "num_parallel_calls"
  attr {
    key: "Targuments"
    value {
      list {
      }
    }
  }
  attr {
    key: "_class"
    value {
      list {
        s: "loc:@IteratorV2"
      }
    }
  }
  attr {
    key: "_output_shapes"
    value {
      list {
        shape {
        }
      }
    }
  }
  attr {
    key: "f"
    value {
      func {
        name: "Dataset_map_<class \'functools.partial\'>_42"
      }
    }
  }
  attr {
    key: "output_shapes"
    value {
      list {
        shape {
          dim {
            size: 256
          }
          dim {
            size: 256
          }
          dim {
            size: 1
          }
        }
        shape {
          dim {
            size: 256
          }
          dim {
            size: 256
          }
          dim {
            size: 1
          }
        }
      }
    }
  }
  attr {
    key: "output_types"
    value {
      list {
        type: DT_FLOAT
        type: DT_FLOAT
      }
    }
  }
  attr {
    key: "preserve_cardinality"
    value {
      b: false
    }
  }
  attr {
    key: "sloppy"
    value {
      b: false
    }
  }
  attr {
    key: "use_inter_op_parallelism"
    value {
      b: true
    }
  }
}
node {
  name: "BatchDatasetV2"
  op: "BatchDatasetV2"
  input: "ParallelMapDataset"
  input: "batch_size"
  input: "drop_remainder"
  attr {
    key: "_class"
    value {
      list {
        s: "loc:@IteratorV2"
      }
    }
  }
  attr {
    key: "_output_shapes"
    value {
      list {
        shape {
        }
      }
    }
  }
  attr {
    key: "output_shapes"
    value {
      list {
        shape {
          dim {
            size: -1
          }
          dim {
            size: 256
          }
          dim {
            size: 256
          }
          dim {
            size: 1
          }
        }
        shape {
          dim {
            size: -1
          }
          dim {
            size: 256
          }
          dim {
            size: 256
          }
          dim {
            size: 1
          }
        }
      }
    }
  }
  attr {
    key: "output_types"
    value {
      list {
        type: DT_FLOAT
        type: DT_FLOAT
      }
    }
  }
}
node {
  name: "MapDataset"
  op: "MapDataset"
  input: "BatchDatasetV2"
  attr {
    key: "Targuments"
    value {
      list {
      }
    }
  }
  attr {
    key: "_class"
    value {
      list {
        s: "loc:@IteratorV2"
      }
    }
  }
  attr {
    key: "_output_shapes"
    value {
      list {
        shape {
        }
      }
    }
  }
  attr {
    key: "f"
    value {
      func {
        name: "Dataset_map_<class \'functools.partial\'>_61"
      }
    }
  }
  attr {
    key: "output_shapes"
    value {
      list {
        shape {
          dim {
            size: -1
          }
          dim {
            size: 256
          }
          dim {
            size: 256
          }
          dim {
            size: 1
          }
        }
        shape {
          dim {
            size: -1
          }
          dim {
            size: 256
          }
          dim {
            size: 256
          }
          dim {
            size: 1
          }
        }
      }
    }
  }
  attr {
    key: "output_types"
    value {
      list {
        type: DT_FLOAT
        type: DT_FLOAT
      }
    }
  }
  attr {
    key: "preserve_cardinality"
    value {
      b: false
    }
  }
  attr {
    key: "use_inter_op_parallelism"
    value {
      b: true
    }
  }
}
node {
  name: "PrefetchDataset"
  op: "PrefetchDataset"
  input: "MapDataset"
  input: "buffer_size_1"
  attr {
    key: "_class"
    value {
      list {
        s: "loc:@IteratorV2"
      }
    }
  }
  attr {
    key: "_output_shapes"
    value {
      list {
        shape {
        }
      }
    }
  }
  attr {
    key: "output_shapes"
    value {
      list {
        shape {
          dim {
            size: -1
          }
          dim {
            size: 256
          }
          dim {
            size: 256
          }
          dim {
            size: 1
          }
        }
        shape {
          dim {
            size: -1
          }
          dim {
            size: 256
          }
          dim {
            size: 256
          }
          dim {
            size: 1
          }
        }
      }
    }
  }
  attr {
    key: "output_types"
    value {
      list {
        type: DT_FLOAT
        type: DT_FLOAT
      }
    }
  }
}
node {
  name: "OptimizeDataset"
  op: "OptimizeDataset"
  input: "PrefetchDataset"
  input: "optimizations"
  attr {
    key: "_class"
    value {
      list {
        s: "loc:@IteratorV2"
      }
    }
  }
  attr {
    key: "_output_shapes"
    value {
      list {
        shape {
        }
      }
    }
  }
  attr {
    key: "output_shapes"
    value {
      list {
        shape {
          dim {
            size: -1
          }
          dim {
            size: 256
          }
          dim {
            size: 256
          }
          dim {
            size: 1
          }
        }
        shape {
          dim {
            size: -1
          }
          dim {
            size: 256
          }
          dim {
            size: 256
          }
          dim {
            size: 1
          }
        }
      }
    }
  }
  attr {
    key: "output_types"
    value {
      list {
        type: DT_FLOAT
        type: DT_FLOAT
      }
    }
  }
}
node {
  name: "ModelDataset"
  op: "ModelDataset"
  input: "OptimizeDataset"
  attr {
    key: "_class"
    value {
      list {
        s: "loc:@IteratorV2"
      }
    }
  }
  attr {
    key: "_output_shapes"
    value {
      list {
        shape {
        }
      }
    }
  }
  attr {
    key: "output_shapes"
    value {
      list {
        shape {
          dim {
            size: -1
          }
          dim {
            size: 256
          }
          dim {
            size: 256
          }
          dim {
            size: 1
          }
        }
        shape {
          dim {
            size: -1
          }
          dim {
            size: 256
          }
          dim {
            size: 256
          }
          dim {
            size: 1
          }
        }
      }
    }
  }
  attr {
    key: "output_types"
    value {
      list {
        type: DT_FLOAT
        type: DT_FLOAT
      }
    }
  }
}
node {
  name: "MakeIterator"
  op: "MakeIterator"
  input: "ModelDataset"
  input: "IteratorV2"
  attr {
    key: "_class"
    value {
      list {
        s: "loc:@IteratorV2"
      }
    }
  }
}
node {
  name: "IteratorToStringHandle"
  op: "IteratorToStringHandle"
  input: "IteratorV2"
  attr {
    key: "_output_shapes"
    value {
      list {
        shape {
        }
      }
    }
  }
}
node {
  name: "IteratorGetNext"
  op: "IteratorGetNext"
  input: "IteratorV2"
  attr {
    key: "_output_shapes"
    value {
      list {
        shape {
          dim {
            size: -1
          }
          dim {
            size: 256
          }
          dim {
            size: 256
          }
          dim {
            size: 1
          }
        }
        shape {
          dim {
            size: -1
          }
          dim {
            size: 256
          }
          dim {
            size: 256
          }
          dim {
            size: 1
          }
        }
      }
    }
  }
  attr {
    key: "output_shapes"
    value {
      list {
        shape {
          dim {
            size: -1
          }
          dim {
            size: 256
          }
          dim {
            size: 256
          }
          dim {
            size: 1
          }
        }
        shape {
          dim {
            size: -1
          }
          dim {
            size: 256
          }
          dim {
            size: 256
          }
          dim {
            size: 1
          }
        }
      }
    }
  }
  attr {
    key: "output_types"
    value {
      list {
        type: DT_FLOAT
        type: DT_FLOAT
      }
    }
  }
}
node {
  name: "c_0_1_conv/kernel/Initializer/random_uniform/shape"
  op: "Const"
  attr {
    key: "_class"
    value {
      list {
        s: "loc:@c_0_1_conv/kernel"
      }
    }
  }
  attr {
    key: "_output_shapes"
    value {
      list {
        shape {
          dim {
            size: 4
          }
        }
      }
    }
  }
  attr {
    key: "dtype"
    value {
      type: DT_INT32
    }
  }
  attr {
    key: "value"
    value {
      tensor {
        dtype: DT_INT32
        tensor_shape {
          dim {
            size: 4
          }
        }
        tensor_content: "\003\000\000\000\003\000\000\000\001\000\000\000 \000\000\000"
      }
    }
  }
}
node {
  name: "c_0_1_conv/kernel/Initializer/random_uniform/min"
  op: "Const"
  attr {
    key: "_class"
    value {
      list {
        s: "loc:@c_0_1_conv/kernel"
      }
    }
  }
  attr {
    key: "_output_shapes"
    value {
      list {
        shape {
        }
      }
    }
  }
  attr {
    key: "dtype"
    value {
      type: DT_FLOAT
    }
  }
  attr {
    key: "value"
    value {
      tensor {
        dtype: DT_FLOAT
        tensor_shape {
        }
        float_val: -0.14213381707668304
      }
    }
  }
}
node {
  name: "c_0_1_conv/kernel/Initializer/random_uniform/max"
  op: "Const"
  attr {
    key: "_class"
    value {
      list {
        s: "loc:@c_0_1_conv/kernel"
      }
    }
  }
  attr {
    key: "_output_shapes"
    value {
      list {
        shape {
        }
      }
    }
  }
  attr {
    key: "dtype"
    value {
      type: DT_FLOAT
    }
  }
  attr {
    key: "value"
    value {
      tensor {
        dtype: DT_FLOAT
        tensor_shape {
        }
        float_val: 0.14213381707668304
      }
    }
  }
}
node {
  name: "c_0_1_conv/kernel/Initializer/random_uniform/RandomUniform"
  op: "RandomUniform"
  input: "c_0_1_conv/kernel/Initializer/random_uniform/shape"
  attr {
    key: "T"
    value {
      type: DT_INT32
    }
  }
  attr {
    key: "_class"
    value {
      list {
        s: "loc:@c_0_1_conv/kernel"
      }
    }
  }
  attr {
    key: "_output_shapes"
    value {
      list {
        shape {
          dim {
            size: 3
          }
          dim {
            size: 3
          }
          dim {
            size: 1
          }
          dim {
            size: 32
          }
        }
      }
    }
  }
  attr {
    key: "dtype"
    value {
      type: DT_FLOAT
    }
  }
  attr {
    key: "seed"
    value {
      i: 0
    }
  }
  attr {
    key: "seed2"
    value {
      i: 0
    }
  }
}
node {
  name: "c_0_1_conv/kernel/Initializer/random_uniform/sub"
  op: "Sub"
  input: "c_0_1_conv/kernel/Initializer/random_uniform/max"
  input: "c_0_1_conv/kernel/Initializer/random_uniform/min"
  attr {
    key: "T"
    value {
      type: DT_FLOAT
    }
  }
  attr {
    key: "_class"
    value {
      list {
        s: "loc:@c_0_1_conv/kernel"
      }
    }
  }
  attr {
    key: "_output_shapes"
    value {
      list {
        shape {
        }
      }
    }
  }
}
node {
  name: "c_0_1_conv/kernel/Initializer/random_uniform/mul"
  op: "Mul"
  input: "c_0_1_conv/kernel/Initializer/random_uniform/RandomUniform"
  input: "c_0_1_conv/kernel/Initializer/random_uniform/sub"
  attr {
    key: "T"
    value {
      type: DT_FLOAT
    }
  }
  attr {
    key: "_class"
    value {
      list {
        s: "loc:@c_0_1_conv/kernel"
      }
    }
  }
  attr {
    key: "_output_shapes"
    value {
      list {
        shape {
          dim {
            size: 3
          }
          dim {
            size: 3
          }
          dim {
            size: 1
          }
          dim {
            size: 32
          }
        }
      }
    }
  }
}
node {
  name: "c_0_1_conv/kernel/Initializer/random_uniform"
  op: "Add"
  input: "c_0_1_conv/kernel/Initializer/random_uniform/mul"
  input: "c_0_1_conv/kernel/Initializer/random_uniform/min"
  attr {
    key: "T"
    value {
      type: DT_FLOAT
    }
  }
  attr {
    key: "_class"
    value {
      list {
        s: "loc:@c_0_1_conv/kernel"
      }
    }
  }
  attr {
    key: "_output_shapes"
    value {
      list {
        shape {
          dim {
            size: 3
          }
          dim {
            size: 3
          }
          dim {
            size: 1
          }
          dim {
            size: 32
          }
        }
      }
    }
  }
}
node {
  name: "c_0_1_conv/kernel"
  op: "VariableV2"
  attr {
    key: "_class"
    value {
      list {
        s: "loc:@c_0_1_conv/kernel"
      }
    }
  }
  attr {
    key: "_output_shapes"
    value {
      list {
        shape {
          dim {
            size: 3
          }
          dim {
            size: 3
          }
          dim {
            size: 1
          }
          dim {
            size: 32
          }
        }
      }
    }
  }
  attr {
    key: "container"
    value {
      s: ""
    }
  }
  attr {
    key: "dtype"
    value {
      type: DT_FLOAT
    }
  }
  attr {
    key: "shape"
    value {
      shape {
        dim {
          size: 3
        }
        dim {
          size: 3
        }
        dim {
          size: 1
        }
        dim {
          size: 32
        }
      }
    }
  }
  attr {
    key: "shared_name"
    value {
      s: ""
    }
  }
}
node {
  name: "c_0_1_conv/kernel/Assign"
  op: "Assign"
  input: "c_0_1_conv/kernel"
  input: "c_0_1_conv/kernel/Initializer/random_uniform"
  attr {
    key: "T"
    value {
      type: DT_FLOAT
    }
  }
  attr {
    key: "_class"
    value {
      list {
        s: "loc:@c_0_1_conv/kernel"
      }
    }
  }
  attr {
    key: "_output_shapes"
    value {
      list {
        shape {
          dim {
            size: 3
          }
          dim {
            size: 3
          }
          dim {
            size: 1
          }
          dim {
            size: 32
          }
        }
      }
    }
  }
  attr {
    key: "use_locking"
    value {
      b: true
    }
  }
  attr {
    key: "validate_shape"
    value {
      b: true
    }
  }
}
node {
  name: "c_0_1_conv/kernel/read"
  op: "Identity"
  input: "c_0_1_conv/kernel"
  attr {
    key: "T"
    value {
      type: DT_FLOAT
    }
  }
  attr {
    key: "_class"
    value {
      list {
        s: "loc:@c_0_1_conv/kernel"
      }
    }
  }
  attr {
    key: "_output_shapes"
    value {
      list {
        shape {
          dim {
            size: 3
          }
          dim {
            size: 3
          }
          dim {
            size: 1
          }
          dim {
            size: 32
          }
        }
      }
    }
  }
}
node {
  name: "c_0_1_conv/bias/Initializer/zeros"
  op: "Const"
  attr {
    key: "_class"
    value {
      list {
        s: "loc:@c_0_1_conv/bias"
      }
    }
  }
  attr {
    key: "_output_shapes"
    value {
      list {
        shape {
          dim {
            size: 32
          }
        }
      }
    }
  }
  attr {
    key: "dtype"
    value {
      type: DT_FLOAT
    }
  }
  attr {
    key: "value"
    value {
      tensor {
        dtype: DT_FLOAT
        tensor_shape {
          dim {
            size: 32
          }
        }
        float_val: 0.0
      }
    }
  }
}
node {
  name: "c_0_1_conv/bias"
  op: "VariableV2"
  attr {
    key: "_class"
    value {
      list {
        s: "loc:@c_0_1_conv/bias"
      }
    }
  }
  attr {
    key: "_output_shapes"
    value {
      list {
        shape {
          dim {
            size: 32
          }
        }
      }
    }
  }
  attr {
    key: "container"
    value {
      s: ""
    }
  }
  attr {
    key: "dtype"
    value {
      type: DT_FLOAT
    }
  }
  attr {
    key: "shape"
    value {
      shape {
        dim {
          size: 32
        }
      }
    }
  }
  attr {
    key: "shared_name"
    value {
      s: ""
    }
  }
}
node {
  name: "c_0_1_conv/bias/Assign"
  op: "Assign"
  input: "c_0_1_conv/bias"
  input: "c_0_1_conv/bias/Initializer/zeros"
  attr {
    key: "T"
    value {
      type: DT_FLOAT
    }
  }
  attr {
    key: "_class"
    value {
      list {
        s: "loc:@c_0_1_conv/bias"
      }
    }
  }
  attr {
    key: "_output_shapes"
    value {
      list {
        shape {
          dim {
            size: 32
          }
        }
      }
    }
  }
  attr {
    key: "use_locking"
    value {
      b: true
    }
  }
  attr {
    key: "validate_shape"
    value {
      b: true
    }
  }
}
node {
  name: "c_0_1_conv/bias/read"
  op: "Identity"
  input: "c_0_1_conv/bias"
  attr {
    key: "T"
    value {
      type: DT_FLOAT
    }
  }
  attr {
    key: "_class"
    value {
      list {
        s: "loc:@c_0_1_conv/bias"
      }
    }
  }
  attr {
    key: "_output_shapes"
    value {
      list {
        shape {
          dim {
            size: 32
          }
        }
      }
    }
  }
}
node {
  name: "c_0_1_conv/dilation_rate"
  op: "Const"
  attr {
    key: "_output_shapes"
    value {
      list {
        shape {
          dim {
            size: 2
          }
        }
      }
    }
  }
  attr {
    key: "dtype"
    value {
      type: DT_INT32
    }
  }
  attr {
    key: "value"
    value {
      tensor {
        dtype: DT_INT32
        tensor_shape {
          dim {
            size: 2
          }
        }
        tensor_content: "\001\000\000\000\001\000\000\000"
      }
    }
  }
}
node {
  name: "c_0_1_conv/Conv2D"
  op: "Conv2D"
  input: "IteratorGetNext"
  input: "c_0_1_conv/kernel/read"
  attr {
    key: "T"
    value {
      type: DT_FLOAT
    }
  }
  attr {
    key: "_output_shapes"
    value {
      list {
        shape {
          dim {
            size: -1
          }
          dim {
            size: 256
          }
          dim {
            size: 256
          }
          dim {
            size: 32
          }
        }
      }
    }
  }
  attr {
    key: "data_format"
    value {
      s: "NHWC"
    }
  }
  attr {
    key: "dilations"
    value {
      list {
        i: 1
        i: 1
        i: 1
        i: 1
      }
    }
  }
  attr {
    key: "padding"
    value {
      s: "SAME"
    }
  }
  attr {
    key: "strides"
    value {
      list {
        i: 1
        i: 1
        i: 1
        i: 1
      }
    }
  }
  attr {
    key: "use_cudnn_on_gpu"
    value {
      b: true
    }
  }
}
node {
  name: "c_0_1_conv/BiasAdd"
  op: "BiasAdd"
  input: "c_0_1_conv/Conv2D"
  input: "c_0_1_conv/bias/read"
  attr {
    key: "T"
    value {
      type: DT_FLOAT
    }
  }
  attr {
    key: "_output_shapes"
    value {
      list {
        shape {
          dim {
            size: -1
          }
          dim {
            size: 256
          }
          dim {
            size: 256
          }
          dim {
            size: 32
          }
        }
      }
    }
  }
  attr {
    key: "data_format"
    value {
      s: "NHWC"
    }
  }
}
node {
  name: "c_0_1_conv/Relu"
  op: "Relu"
  input: "c_0_1_conv/BiasAdd"
  attr {
    key: "T"
    value {
      type: DT_FLOAT
    }
  }
  attr {
    key: "_output_shapes"
    value {
      list {
        shape {
          dim {
            size: -1
          }
          dim {
            size: 256
          }
          dim {
            size: 256
          }
          dim {
            size: 32
          }
        }
      }
    }
  }
}
node {
  name: "c_0_2_conv/kernel/Initializer/random_uniform/shape"
  op: "Const"
  attr {
    key: "_class"
    value {
      list {
        s: "loc:@c_0_2_conv/kernel"
      }
    }
  }
  attr {
    key: "_output_shapes"
    value {
      list {
        shape {
          dim {
            size: 4
          }
        }
      }
    }
  }
  attr {
    key: "dtype"
    value {
      type: DT_INT32
    }
  }
  attr {
    key: "value"
    value {
      tensor {
        dtype: DT_INT32
        tensor_shape {
          dim {
            size: 4
          }
        }
        tensor_content: "\003\000\000\000\003\000\000\000 \000\000\000 \000\000\000"
      }
    }
  }
}
node {
  name: "c_0_2_conv/kernel/Initializer/random_uniform/min"
  op: "Const"
  attr {
    key: "_class"
    value {
      list {
        s: "loc:@c_0_2_conv/kernel"
      }
    }
  }
  attr {
    key: "_output_shapes"
    value {
      list {
        shape {
        }
      }
    }
  }
  attr {
    key: "dtype"
    value {
      type: DT_FLOAT
    }
  }
  attr {
    key: "value"
    value {
      tensor {
        dtype: DT_FLOAT
        tensor_shape {
        }
        float_val: -0.10206207633018494
      }
    }
  }
}
node {
  name: "c_0_2_conv/kernel/Initializer/random_uniform/max"
  op: "Const"
  attr {
    key: "_class"
    value {
      list {
        s: "loc:@c_0_2_conv/kernel"
      }
    }
  }
  attr {
    key: "_output_shapes"
    value {
      list {
        shape {
        }
      }
    }
  }
  attr {
    key: "dtype"
    value {
      type: DT_FLOAT
    }
  }
  attr {
    key: "value"
    value {
      tensor {
        dtype: DT_FLOAT
        tensor_shape {
        }
        float_val: 0.10206207633018494
      }
    }
  }
}
node {
  name: "c_0_2_conv/kernel/Initializer/random_uniform/RandomUniform"
  op: "RandomUniform"
  input: "c_0_2_conv/kernel/Initializer/random_uniform/shape"
  attr {
    key: "T"
    value {
      type: DT_INT32
    }
  }
  attr {
    key: "_class"
    value {
      list {
        s: "loc:@c_0_2_conv/kernel"
      }
    }
  }
  attr {
    key: "_output_shapes"
    value {
      list {
        shape {
          dim {
            size: 3
          }
          dim {
            size: 3
          }
          dim {
            size: 32
          }
          dim {
            size: 32
          }
        }
      }
    }
  }
  attr {
    key: "dtype"
    value {
      type: DT_FLOAT
    }
  }
  attr {
    key: "seed"
    value {
      i: 0
    }
  }
  attr {
    key: "seed2"
    value {
      i: 0
    }
  }
}
node {
  name: "c_0_2_conv/kernel/Initializer/random_uniform/sub"
  op: "Sub"
  input: "c_0_2_conv/kernel/Initializer/random_uniform/max"
  input: "c_0_2_conv/kernel/Initializer/random_uniform/min"
  attr {
    key: "T"
    value {
      type: DT_FLOAT
    }
  }
  attr {
    key: "_class"
    value {
      list {
        s: "loc:@c_0_2_conv/kernel"
      }
    }
  }
  attr {
    key: "_output_shapes"
    value {
      list {
        shape {
        }
      }
    }
  }
}
node {
  name: "c_0_2_conv/kernel/Initializer/random_uniform/mul"
  op: "Mul"
  input: "c_0_2_conv/kernel/Initializer/random_uniform/RandomUniform"
  input: "c_0_2_conv/kernel/Initializer/random_uniform/sub"
  attr {
    key: "T"
    value {
      type: DT_FLOAT
    }
  }
  attr {
    key: "_class"
    value {
      list {
        s: "loc:@c_0_2_conv/kernel"
      }
    }
  }
  attr {
    key: "_output_shapes"
    value {
      list {
        shape {
          dim {
            size: 3
          }
          dim {
            size: 3
          }
          dim {
            size: 32
          }
          dim {
            size: 32
          }
        }
      }
    }
  }
}
node {
  name: "c_0_2_conv/kernel/Initializer/random_uniform"
  op: "Add"
  input: "c_0_2_conv/kernel/Initializer/random_uniform/mul"
  input: "c_0_2_conv/kernel/Initializer/random_uniform/min"
  attr {
    key: "T"
    value {
      type: DT_FLOAT
    }
  }
  attr {
    key: "_class"
    value {
      list {
        s: "loc:@c_0_2_conv/kernel"
      }
    }
  }
  attr {
    key: "_output_shapes"
    value {
      list {
        shape {
          dim {
            size: 3
          }
          dim {
            size: 3
          }
          dim {
            size: 32
          }
          dim {
            size: 32
          }
        }
      }
    }
  }
}
node {
  name: "c_0_2_conv/kernel"
  op: "VariableV2"
  attr {
    key: "_class"
    value {
      list {
        s: "loc:@c_0_2_conv/kernel"
      }
    }
  }
  attr {
    key: "_output_shapes"
    value {
      list {
        shape {
          dim {
            size: 3
          }
          dim {
            size: 3
          }
          dim {
            size: 32
          }
          dim {
            size: 32
          }
        }
      }
    }
  }
  attr {
    key: "container"
    value {
      s: ""
    }
  }
  attr {
    key: "dtype"
    value {
      type: DT_FLOAT
    }
  }
  attr {
    key: "shape"
    value {
      shape {
        dim {
          size: 3
        }
        dim {
          size: 3
        }
        dim {
          size: 32
        }
        dim {
          size: 32
        }
      }
    }
  }
  attr {
    key: "shared_name"
    value {
      s: ""
    }
  }
}
node {
  name: "c_0_2_conv/kernel/Assign"
  op: "Assign"
  input: "c_0_2_conv/kernel"
  input: "c_0_2_conv/kernel/Initializer/random_uniform"
  attr {
    key: "T"
    value {
      type: DT_FLOAT
    }
  }
  attr {
    key: "_class"
    value {
      list {
        s: "loc:@c_0_2_conv/kernel"
      }
    }
  }
  attr {
    key: "_output_shapes"
    value {
      list {
        shape {
          dim {
            size: 3
          }
          dim {
            size: 3
          }
          dim {
            size: 32
          }
          dim {
            size: 32
          }
        }
      }
    }
  }
  attr {
    key: "use_locking"
    value {
      b: true
    }
  }
  attr {
    key: "validate_shape"
    value {
      b: true
    }
  }
}
node {
  name: "c_0_2_conv/kernel/read"
  op: "Identity"
  input: "c_0_2_conv/kernel"
  attr {
    key: "T"
    value {
      type: DT_FLOAT
    }
  }
  attr {
    key: "_class"
    value {
      list {
        s: "loc:@c_0_2_conv/kernel"
      }
    }
  }
  attr {
    key: "_output_shapes"
    value {
      list {
        shape {
          dim {
            size: 3
          }
          dim {
            size: 3
          }
          dim {
            size: 32
          }
          dim {
            size: 32
          }
        }
      }
    }
  }
}
node {
  name: "c_0_2_conv/bias/Initializer/zeros"
  op: "Const"
  attr {
    key: "_class"
    value {
      list {
        s: "loc:@c_0_2_conv/bias"
      }
    }
  }
  attr {
    key: "_output_shapes"
    value {
      list {
        shape {
          dim {
            size: 32
          }
        }
      }
    }
  }
  attr {
    key: "dtype"
    value {
      type: DT_FLOAT
    }
  }
  attr {
    key: "value"
    value {
      tensor {
        dtype: DT_FLOAT
        tensor_shape {
          dim {
            size: 32
          }
        }
        float_val: 0.0
      }
    }
  }
}
node {
  name: "c_0_2_conv/bias"
  op: "VariableV2"
  attr {
    key: "_class"
    value {
      list {
        s: "loc:@c_0_2_conv/bias"
      }
    }
  }
  attr {
    key: "_output_shapes"
    value {
      list {
        shape {
          dim {
            size: 32
          }
        }
      }
    }
  }
  attr {
    key: "container"
    value {
      s: ""
    }
  }
  attr {
    key: "dtype"
    value {
      type: DT_FLOAT
    }
  }
  attr {
    key: "shape"
    value {
      shape {
        dim {
          size: 32
        }
      }
    }
  }
  attr {
    key: "shared_name"
    value {
      s: ""
    }
  }
}
node {
  name: "c_0_2_conv/bias/Assign"
  op: "Assign"
  input: "c_0_2_conv/bias"
  input: "c_0_2_conv/bias/Initializer/zeros"
  attr {
    key: "T"
    value {
      type: DT_FLOAT
    }
  }
  attr {
    key: "_class"
    value {
      list {
        s: "loc:@c_0_2_conv/bias"
      }
    }
  }
  attr {
    key: "_output_shapes"
    value {
      list {
        shape {
          dim {
            size: 32
          }
        }
      }
    }
  }
  attr {
    key: "use_locking"
    value {
      b: true
    }
  }
  attr {
    key: "validate_shape"
    value {
      b: true
    }
  }
}
node {
  name: "c_0_2_conv/bias/read"
  op: "Identity"
  input: "c_0_2_conv/bias"
  attr {
    key: "T"
    value {
      type: DT_FLOAT
    }
  }
  attr {
    key: "_class"
    value {
      list {
        s: "loc:@c_0_2_conv/bias"
      }
    }
  }
  attr {
    key: "_output_shapes"
    value {
      list {
        shape {
          dim {
            size: 32
          }
        }
      }
    }
  }
}
node {
  name: "c_0_2_conv/dilation_rate"
  op: "Const"
  attr {
    key: "_output_shapes"
    value {
      list {
        shape {
          dim {
            size: 2
          }
        }
      }
    }
  }
  attr {
    key: "dtype"
    value {
      type: DT_INT32
    }
  }
  attr {
    key: "value"
    value {
      tensor {
        dtype: DT_INT32
        tensor_shape {
          dim {
            size: 2
          }
        }
        tensor_content: "\001\000\000\000\001\000\000\000"
      }
    }
  }
}
node {
  name: "c_0_2_conv/Conv2D"
  op: "Conv2D"
  input: "c_0_1_conv/Relu"
  input: "c_0_2_conv/kernel/read"
  attr {
    key: "T"
    value {
      type: DT_FLOAT
    }
  }
  attr {
    key: "_output_shapes"
    value {
      list {
        shape {
          dim {
            size: -1
          }
          dim {
            size: 256
          }
          dim {
            size: 256
          }
          dim {
            size: 32
          }
        }
      }
    }
  }
  attr {
    key: "data_format"
    value {
      s: "NHWC"
    }
  }
  attr {
    key: "dilations"
    value {
      list {
        i: 1
        i: 1
        i: 1
        i: 1
      }
    }
  }
  attr {
    key: "padding"
    value {
      s: "SAME"
    }
  }
  attr {
    key: "strides"
    value {
      list {
        i: 1
        i: 1
        i: 1
        i: 1
      }
    }
  }
  attr {
    key: "use_cudnn_on_gpu"
    value {
      b: true
    }
  }
}
node {
  name: "c_0_2_conv/BiasAdd"
  op: "BiasAdd"
  input: "c_0_2_conv/Conv2D"
  input: "c_0_2_conv/bias/read"
  attr {
    key: "T"
    value {
      type: DT_FLOAT
    }
  }
  attr {
    key: "_output_shapes"
    value {
      list {
        shape {
          dim {
            size: -1
          }
          dim {
            size: 256
          }
          dim {
            size: 256
          }
          dim {
            size: 32
          }
        }
      }
    }
  }
  attr {
    key: "data_format"
    value {
      s: "NHWC"
    }
  }
}
node {
  name: "c_0_2_conv/Relu"
  op: "Relu"
  input: "c_0_2_conv/BiasAdd"
  attr {
    key: "T"
    value {
      type: DT_FLOAT
    }
  }
  attr {
    key: "_output_shapes"
    value {
      list {
        shape {
          dim {
            size: -1
          }
          dim {
            size: 256
          }
          dim {
            size: 256
          }
          dim {
            size: 32
          }
        }
      }
    }
  }
}
node {
  name: "c_0/MaxPool"
  op: "MaxPool"
  input: "c_0_2_conv/Relu"
  attr {
    key: "T"
    value {
      type: DT_FLOAT
    }
  }
  attr {
    key: "_output_shapes"
    value {
      list {
        shape {
          dim {
            size: -1
          }
          dim {
            size: 128
          }
          dim {
            size: 128
          }
          dim {
            size: 32
          }
        }
      }
    }
  }
  attr {
    key: "data_format"
    value {
      s: "NHWC"
    }
  }
  attr {
    key: "ksize"
    value {
      list {
        i: 1
        i: 2
        i: 2
        i: 1
      }
    }
  }
  attr {
    key: "padding"
    value {
      s: "SAME"
    }
  }
  attr {
    key: "strides"
    value {
      list {
        i: 1
        i: 2
        i: 2
        i: 1
      }
    }
  }
}
node {
  name: "c_1_1_conv/kernel/Initializer/random_uniform/shape"
  op: "Const"
  attr {
    key: "_class"
    value {
      list {
        s: "loc:@c_1_1_conv/kernel"
      }
    }
  }
  attr {
    key: "_output_shapes"
    value {
      list {
        shape {
          dim {
            size: 4
          }
        }
      }
    }
  }
  attr {
    key: "dtype"
    value {
      type: DT_INT32
    }
  }
  attr {
    key: "value"
    value {
      tensor {
        dtype: DT_INT32
        tensor_shape {
          dim {
            size: 4
          }
        }
        tensor_content: "\003\000\000\000\003\000\000\000 \000\000\000@\000\000\000"
      }
    }
  }
}
node {
  name: "c_1_1_conv/kernel/Initializer/random_uniform/min"
  op: "Const"
  attr {
    key: "_class"
    value {
      list {
        s: "loc:@c_1_1_conv/kernel"
      }
    }
  }
  attr {
    key: "_output_shapes"
    value {
      list {
        shape {
        }
      }
    }
  }
  attr {
    key: "dtype"
    value {
      type: DT_FLOAT
    }
  }
  attr {
    key: "value"
    value {
      tensor {
        dtype: DT_FLOAT
        tensor_shape {
        }
        float_val: -0.0833333358168602
      }
    }
  }
}
node {
  name: "c_1_1_conv/kernel/Initializer/random_uniform/max"
  op: "Const"
  attr {
    key: "_class"
    value {
      list {
        s: "loc:@c_1_1_conv/kernel"
      }
    }
  }
  attr {
    key: "_output_shapes"
    value {
      list {
        shape {
        }
      }
    }
  }
  attr {
    key: "dtype"
    value {
      type: DT_FLOAT
    }
  }
  attr {
    key: "value"
    value {
      tensor {
        dtype: DT_FLOAT
        tensor_shape {
        }
        float_val: 0.0833333358168602
      }
    }
  }
}
node {
  name: "c_1_1_conv/kernel/Initializer/random_uniform/RandomUniform"
  op: "RandomUniform"
  input: "c_1_1_conv/kernel/Initializer/random_uniform/shape"
  attr {
    key: "T"
    value {
      type: DT_INT32
    }
  }
  attr {
    key: "_class"
    value {
      list {
        s: "loc:@c_1_1_conv/kernel"
      }
    }
  }
  attr {
    key: "_output_shapes"
    value {
      list {
        shape {
          dim {
            size: 3
          }
          dim {
            size: 3
          }
          dim {
            size: 32
          }
          dim {
            size: 64
          }
        }
      }
    }
  }
  attr {
    key: "dtype"
    value {
      type: DT_FLOAT
    }
  }
  attr {
    key: "seed"
    value {
      i: 0
    }
  }
  attr {
    key: "seed2"
    value {
      i: 0
    }
  }
}
node {
  name: "c_1_1_conv/kernel/Initializer/random_uniform/sub"
  op: "Sub"
  input: "c_1_1_conv/kernel/Initializer/random_uniform/max"
  input: "c_1_1_conv/kernel/Initializer/random_uniform/min"
  attr {
    key: "T"
    value {
      type: DT_FLOAT
    }
  }
  attr {
    key: "_class"
    value {
      list {
        s: "loc:@c_1_1_conv/kernel"
      }
    }
  }
  attr {
    key: "_output_shapes"
    value {
      list {
        shape {
        }
      }
    }
  }
}
node {
  name: "c_1_1_conv/kernel/Initializer/random_uniform/mul"
  op: "Mul"
  input: "c_1_1_conv/kernel/Initializer/random_uniform/RandomUniform"
  input: "c_1_1_conv/kernel/Initializer/random_uniform/sub"
  attr {
    key: "T"
    value {
      type: DT_FLOAT
    }
  }
  attr {
    key: "_class"
    value {
      list {
        s: "loc:@c_1_1_conv/kernel"
      }
    }
  }
  attr {
    key: "_output_shapes"
    value {
      list {
        shape {
          dim {
            size: 3
          }
          dim {
            size: 3
          }
          dim {
            size: 32
          }
          dim {
            size: 64
          }
        }
      }
    }
  }
}
node {
  name: "c_1_1_conv/kernel/Initializer/random_uniform"
  op: "Add"
  input: "c_1_1_conv/kernel/Initializer/random_uniform/mul"
  input: "c_1_1_conv/kernel/Initializer/random_uniform/min"
  attr {
    key: "T"
    value {
      type: DT_FLOAT
    }
  }
  attr {
    key: "_class"
    value {
      list {
        s: "loc:@c_1_1_conv/kernel"
      }
    }
  }
  attr {
    key: "_output_shapes"
    value {
      list {
        shape {
          dim {
            size: 3
          }
          dim {
            size: 3
          }
          dim {
            size: 32
          }
          dim {
            size: 64
          }
        }
      }
    }
  }
}
node {
  name: "c_1_1_conv/kernel"
  op: "VariableV2"
  attr {
    key: "_class"
    value {
      list {
        s: "loc:@c_1_1_conv/kernel"
      }
    }
  }
  attr {
    key: "_output_shapes"
    value {
      list {
        shape {
          dim {
            size: 3
          }
          dim {
            size: 3
          }
          dim {
            size: 32
          }
          dim {
            size: 64
          }
        }
      }
    }
  }
  attr {
    key: "container"
    value {
      s: ""
    }
  }
  attr {
    key: "dtype"
    value {
      type: DT_FLOAT
    }
  }
  attr {
    key: "shape"
    value {
      shape {
        dim {
          size: 3
        }
        dim {
          size: 3
        }
        dim {
          size: 32
        }
        dim {
          size: 64
        }
      }
    }
  }
  attr {
    key: "shared_name"
    value {
      s: ""
    }
  }
}
node {
  name: "c_1_1_conv/kernel/Assign"
  op: "Assign"
  input: "c_1_1_conv/kernel"
  input: "c_1_1_conv/kernel/Initializer/random_uniform"
  attr {
    key: "T"
    value {
      type: DT_FLOAT
    }
  }
  attr {
    key: "_class"
    value {
      list {
        s: "loc:@c_1_1_conv/kernel"
      }
    }
  }
  attr {
    key: "_output_shapes"
    value {
      list {
        shape {
          dim {
            size: 3
          }
          dim {
            size: 3
          }
          dim {
            size: 32
          }
          dim {
            size: 64
          }
        }
      }
    }
  }
  attr {
    key: "use_locking"
    value {
      b: true
    }
  }
  attr {
    key: "validate_shape"
    value {
      b: true
    }
  }
}
node {
  name: "c_1_1_conv/kernel/read"
  op: "Identity"
  input: "c_1_1_conv/kernel"
  attr {
    key: "T"
    value {
      type: DT_FLOAT
    }
  }
  attr {
    key: "_class"
    value {
      list {
        s: "loc:@c_1_1_conv/kernel"
      }
    }
  }
  attr {
    key: "_output_shapes"
    value {
      list {
        shape {
          dim {
            size: 3
          }
          dim {
            size: 3
          }
          dim {
            size: 32
          }
          dim {
            size: 64
          }
        }
      }
    }
  }
}
node {
  name: "c_1_1_conv/bias/Initializer/zeros"
  op: "Const"
  attr {
    key: "_class"
    value {
      list {
        s: "loc:@c_1_1_conv/bias"
      }
    }
  }
  attr {
    key: "_output_shapes"
    value {
      list {
        shape {
          dim {
            size: 64
          }
        }
      }
    }
  }
  attr {
    key: "dtype"
    value {
      type: DT_FLOAT
    }
  }
  attr {
    key: "value"
    value {
      tensor {
        dtype: DT_FLOAT
        tensor_shape {
          dim {
            size: 64
          }
        }
        float_val: 0.0
      }
    }
  }
}
node {
  name: "c_1_1_conv/bias"
  op: "VariableV2"
  attr {
    key: "_class"
    value {
      list {
        s: "loc:@c_1_1_conv/bias"
      }
    }
  }
  attr {
    key: "_output_shapes"
    value {
      list {
        shape {
          dim {
            size: 64
          }
        }
      }
    }
  }
  attr {
    key: "container"
    value {
      s: ""
    }
  }
  attr {
    key: "dtype"
    value {
      type: DT_FLOAT
    }
  }
  attr {
    key: "shape"
    value {
      shape {
        dim {
          size: 64
        }
      }
    }
  }
  attr {
    key: "shared_name"
    value {
      s: ""
    }
  }
}
node {
  name: "c_1_1_conv/bias/Assign"
  op: "Assign"
  input: "c_1_1_conv/bias"
  input: "c_1_1_conv/bias/Initializer/zeros"
  attr {
    key: "T"
    value {
      type: DT_FLOAT
    }
  }
  attr {
    key: "_class"
    value {
      list {
        s: "loc:@c_1_1_conv/bias"
      }
    }
  }
  attr {
    key: "_output_shapes"
    value {
      list {
        shape {
          dim {
            size: 64
          }
        }
      }
    }
  }
  attr {
    key: "use_locking"
    value {
      b: true
    }
  }
  attr {
    key: "validate_shape"
    value {
      b: true
    }
  }
}
node {
  name: "c_1_1_conv/bias/read"
  op: "Identity"
  input: "c_1_1_conv/bias"
  attr {
    key: "T"
    value {
      type: DT_FLOAT
    }
  }
  attr {
    key: "_class"
    value {
      list {
        s: "loc:@c_1_1_conv/bias"
      }
    }
  }
  attr {
    key: "_output_shapes"
    value {
      list {
        shape {
          dim {
            size: 64
          }
        }
      }
    }
  }
}
node {
  name: "c_1_1_conv/dilation_rate"
  op: "Const"
  attr {
    key: "_output_shapes"
    value {
      list {
        shape {
          dim {
            size: 2
          }
        }
      }
    }
  }
  attr {
    key: "dtype"
    value {
      type: DT_INT32
    }
  }
  attr {
    key: "value"
    value {
      tensor {
        dtype: DT_INT32
        tensor_shape {
          dim {
            size: 2
          }
        }
        tensor_content: "\001\000\000\000\001\000\000\000"
      }
    }
  }
}
node {
  name: "c_1_1_conv/Conv2D"
  op: "Conv2D"
  input: "c_0/MaxPool"
  input: "c_1_1_conv/kernel/read"
  attr {
    key: "T"
    value {
      type: DT_FLOAT
    }
  }
  attr {
    key: "_output_shapes"
    value {
      list {
        shape {
          dim {
            size: -1
          }
          dim {
            size: 128
          }
          dim {
            size: 128
          }
          dim {
            size: 64
          }
        }
      }
    }
  }
  attr {
    key: "data_format"
    value {
      s: "NHWC"
    }
  }
  attr {
    key: "dilations"
    value {
      list {
        i: 1
        i: 1
        i: 1
        i: 1
      }
    }
  }
  attr {
    key: "padding"
    value {
      s: "SAME"
    }
  }
  attr {
    key: "strides"
    value {
      list {
        i: 1
        i: 1
        i: 1
        i: 1
      }
    }
  }
  attr {
    key: "use_cudnn_on_gpu"
    value {
      b: true
    }
  }
}
node {
  name: "c_1_1_conv/BiasAdd"
  op: "BiasAdd"
  input: "c_1_1_conv/Conv2D"
  input: "c_1_1_conv/bias/read"
  attr {
    key: "T"
    value {
      type: DT_FLOAT
    }
  }
  attr {
    key: "_output_shapes"
    value {
      list {
        shape {
          dim {
            size: -1
          }
          dim {
            size: 128
          }
          dim {
            size: 128
          }
          dim {
            size: 64
          }
        }
      }
    }
  }
  attr {
    key: "data_format"
    value {
      s: "NHWC"
    }
  }
}
node {
  name: "c_1_1_conv/Relu"
  op: "Relu"
  input: "c_1_1_conv/BiasAdd"
  attr {
    key: "T"
    value {
      type: DT_FLOAT
    }
  }
  attr {
    key: "_output_shapes"
    value {
      list {
        shape {
          dim {
            size: -1
          }
          dim {
            size: 128
          }
          dim {
            size: 128
          }
          dim {
            size: 64
          }
        }
      }
    }
  }
}
node {
  name: "c_1_2_conv/kernel/Initializer/random_uniform/shape"
  op: "Const"
  attr {
    key: "_class"
    value {
      list {
        s: "loc:@c_1_2_conv/kernel"
      }
    }
  }
  attr {
    key: "_output_shapes"
    value {
      list {
        shape {
          dim {
            size: 4
          }
        }
      }
    }
  }
  attr {
    key: "dtype"
    value {
      type: DT_INT32
    }
  }
  attr {
    key: "value"
    value {
      tensor {
        dtype: DT_INT32
        tensor_shape {
          dim {
            size: 4
          }
        }
        tensor_content: "\003\000\000\000\003\000\000\000@\000\000\000@\000\000\000"
      }
    }
  }
}
node {
  name: "c_1_2_conv/kernel/Initializer/random_uniform/min"
  op: "Const"
  attr {
    key: "_class"
    value {
      list {
        s: "loc:@c_1_2_conv/kernel"
      }
    }
  }
  attr {
    key: "_output_shapes"
    value {
      list {
        shape {
        }
      }
    }
  }
  attr {
    key: "dtype"
    value {
      type: DT_FLOAT
    }
  }
  attr {
    key: "value"
    value {
      tensor {
        dtype: DT_FLOAT
        tensor_shape {
        }
        float_val: -0.07216878235340118
      }
    }
  }
}
node {
  name: "c_1_2_conv/kernel/Initializer/random_uniform/max"
  op: "Const"
  attr {
    key: "_class"
    value {
      list {
        s: "loc:@c_1_2_conv/kernel"
      }
    }
  }
  attr {
    key: "_output_shapes"
    value {
      list {
        shape {
        }
      }
    }
  }
  attr {
    key: "dtype"
    value {
      type: DT_FLOAT
    }
  }
  attr {
    key: "value"
    value {
      tensor {
        dtype: DT_FLOAT
        tensor_shape {
        }
        float_val: 0.07216878235340118
      }
    }
  }
}
node {
  name: "c_1_2_conv/kernel/Initializer/random_uniform/RandomUniform"
  op: "RandomUniform"
  input: "c_1_2_conv/kernel/Initializer/random_uniform/shape"
  attr {
    key: "T"
    value {
      type: DT_INT32
    }
  }
  attr {
    key: "_class"
    value {
      list {
        s: "loc:@c_1_2_conv/kernel"
      }
    }
  }
  attr {
    key: "_output_shapes"
    value {
      list {
        shape {
          dim {
            size: 3
          }
          dim {
            size: 3
          }
          dim {
            size: 64
          }
          dim {
            size: 64
          }
        }
      }
    }
  }
  attr {
    key: "dtype"
    value {
      type: DT_FLOAT
    }
  }
  attr {
    key: "seed"
    value {
      i: 0
    }
  }
  attr {
    key: "seed2"
    value {
      i: 0
    }
  }
}
node {
  name: "c_1_2_conv/kernel/Initializer/random_uniform/sub"
  op: "Sub"
  input: "c_1_2_conv/kernel/Initializer/random_uniform/max"
  input: "c_1_2_conv/kernel/Initializer/random_uniform/min"
  attr {
    key: "T"
    value {
      type: DT_FLOAT
    }
  }
  attr {
    key: "_class"
    value {
      list {
        s: "loc:@c_1_2_conv/kernel"
      }
    }
  }
  attr {
    key: "_output_shapes"
    value {
      list {
        shape {
        }
      }
    }
  }
}
node {
  name: "c_1_2_conv/kernel/Initializer/random_uniform/mul"
  op: "Mul"
  input: "c_1_2_conv/kernel/Initializer/random_uniform/RandomUniform"
  input: "c_1_2_conv/kernel/Initializer/random_uniform/sub"
  attr {
    key: "T"
    value {
      type: DT_FLOAT
    }
  }
  attr {
    key: "_class"
    value {
      list {
        s: "loc:@c_1_2_conv/kernel"
      }
    }
  }
  attr {
    key: "_output_shapes"
    value {
      list {
        shape {
          dim {
            size: 3
          }
          dim {
            size: 3
          }
          dim {
            size: 64
          }
          dim {
            size: 64
          }
        }
      }
    }
  }
}
node {
  name: "c_1_2_conv/kernel/Initializer/random_uniform"
  op: "Add"
  input: "c_1_2_conv/kernel/Initializer/random_uniform/mul"
  input: "c_1_2_conv/kernel/Initializer/random_uniform/min"
  attr {
    key: "T"
    value {
      type: DT_FLOAT
    }
  }
  attr {
    key: "_class"
    value {
      list {
        s: "loc:@c_1_2_conv/kernel"
      }
    }
  }
  attr {
    key: "_output_shapes"
    value {
      list {
        shape {
          dim {
            size: 3
          }
          dim {
            size: 3
          }
          dim {
            size: 64
          }
          dim {
            size: 64
          }
        }
      }
    }
  }
}
node {
  name: "c_1_2_conv/kernel"
  op: "VariableV2"
  attr {
    key: "_class"
    value {
      list {
        s: "loc:@c_1_2_conv/kernel"
      }
    }
  }
  attr {
    key: "_output_shapes"
    value {
      list {
        shape {
          dim {
            size: 3
          }
          dim {
            size: 3
          }
          dim {
            size: 64
          }
          dim {
            size: 64
          }
        }
      }
    }
  }
  attr {
    key: "container"
    value {
      s: ""
    }
  }
  attr {
    key: "dtype"
    value {
      type: DT_FLOAT
    }
  }
  attr {
    key: "shape"
    value {
      shape {
        dim {
          size: 3
        }
        dim {
          size: 3
        }
        dim {
          size: 64
        }
        dim {
          size: 64
        }
      }
    }
  }
  attr {
    key: "shared_name"
    value {
      s: ""
    }
  }
}
node {
  name: "c_1_2_conv/kernel/Assign"
  op: "Assign"
  input: "c_1_2_conv/kernel"
  input: "c_1_2_conv/kernel/Initializer/random_uniform"
  attr {
    key: "T"
    value {
      type: DT_FLOAT
    }
  }
  attr {
    key: "_class"
    value {
      list {
        s: "loc:@c_1_2_conv/kernel"
      }
    }
  }
  attr {
    key: "_output_shapes"
    value {
      list {
        shape {
          dim {
            size: 3
          }
          dim {
            size: 3
          }
          dim {
            size: 64
          }
          dim {
            size: 64
          }
        }
      }
    }
  }
  attr {
    key: "use_locking"
    value {
      b: true
    }
  }
  attr {
    key: "validate_shape"
    value {
      b: true
    }
  }
}
node {
  name: "c_1_2_conv/kernel/read"
  op: "Identity"
  input: "c_1_2_conv/kernel"
  attr {
    key: "T"
    value {
      type: DT_FLOAT
    }
  }
  attr {
    key: "_class"
    value {
      list {
        s: "loc:@c_1_2_conv/kernel"
      }
    }
  }
  attr {
    key: "_output_shapes"
    value {
      list {
        shape {
          dim {
            size: 3
          }
          dim {
            size: 3
          }
          dim {
            size: 64
          }
          dim {
            size: 64
          }
        }
      }
    }
  }
}
node {
  name: "c_1_2_conv/bias/Initializer/zeros"
  op: "Const"
  attr {
    key: "_class"
    value {
      list {
        s: "loc:@c_1_2_conv/bias"
      }
    }
  }
  attr {
    key: "_output_shapes"
    value {
      list {
        shape {
          dim {
            size: 64
          }
        }
      }
    }
  }
  attr {
    key: "dtype"
    value {
      type: DT_FLOAT
    }
  }
  attr {
    key: "value"
    value {
      tensor {
        dtype: DT_FLOAT
        tensor_shape {
          dim {
            size: 64
          }
        }
        float_val: 0.0
      }
    }
  }
}
node {
  name: "c_1_2_conv/bias"
  op: "VariableV2"
  attr {
    key: "_class"
    value {
      list {
        s: "loc:@c_1_2_conv/bias"
      }
    }
  }
  attr {
    key: "_output_shapes"
    value {
      list {
        shape {
          dim {
            size: 64
          }
        }
      }
    }
  }
  attr {
    key: "container"
    value {
      s: ""
    }
  }
  attr {
    key: "dtype"
    value {
      type: DT_FLOAT
    }
  }
  attr {
    key: "shape"
    value {
      shape {
        dim {
          size: 64
        }
      }
    }
  }
  attr {
    key: "shared_name"
    value {
      s: ""
    }
  }
}
node {
  name: "c_1_2_conv/bias/Assign"
  op: "Assign"
  input: "c_1_2_conv/bias"
  input: "c_1_2_conv/bias/Initializer/zeros"
  attr {
    key: "T"
    value {
      type: DT_FLOAT
    }
  }
  attr {
    key: "_class"
    value {
      list {
        s: "loc:@c_1_2_conv/bias"
      }
    }
  }
  attr {
    key: "_output_shapes"
    value {
      list {
        shape {
          dim {
            size: 64
          }
        }
      }
    }
  }
  attr {
    key: "use_locking"
    value {
      b: true
    }
  }
  attr {
    key: "validate_shape"
    value {
      b: true
    }
  }
}
node {
  name: "c_1_2_conv/bias/read"
  op: "Identity"
  input: "c_1_2_conv/bias"
  attr {
    key: "T"
    value {
      type: DT_FLOAT
    }
  }
  attr {
    key: "_class"
    value {
      list {
        s: "loc:@c_1_2_conv/bias"
      }
    }
  }
  attr {
    key: "_output_shapes"
    value {
      list {
        shape {
          dim {
            size: 64
          }
        }
      }
    }
  }
}
node {
  name: "c_1_2_conv/dilation_rate"
  op: "Const"
  attr {
    key: "_output_shapes"
    value {
      list {
        shape {
          dim {
            size: 2
          }
        }
      }
    }
  }
  attr {
    key: "dtype"
    value {
      type: DT_INT32
    }
  }
  attr {
    key: "value"
    value {
      tensor {
        dtype: DT_INT32
        tensor_shape {
          dim {
            size: 2
          }
        }
        tensor_content: "\001\000\000\000\001\000\000\000"
      }
    }
  }
}
node {
  name: "c_1_2_conv/Conv2D"
  op: "Conv2D"
  input: "c_1_1_conv/Relu"
  input: "c_1_2_conv/kernel/read"
  attr {
    key: "T"
    value {
      type: DT_FLOAT
    }
  }
  attr {
    key: "_output_shapes"
    value {
      list {
        shape {
          dim {
            size: -1
          }
          dim {
            size: 128
          }
          dim {
            size: 128
          }
          dim {
            size: 64
          }
        }
      }
    }
  }
  attr {
    key: "data_format"
    value {
      s: "NHWC"
    }
  }
  attr {
    key: "dilations"
    value {
      list {
        i: 1
        i: 1
        i: 1
        i: 1
      }
    }
  }
  attr {
    key: "padding"
    value {
      s: "SAME"
    }
  }
  attr {
    key: "strides"
    value {
      list {
        i: 1
        i: 1
        i: 1
        i: 1
      }
    }
  }
  attr {
    key: "use_cudnn_on_gpu"
    value {
      b: true
    }
  }
}
node {
  name: "c_1_2_conv/BiasAdd"
  op: "BiasAdd"
  input: "c_1_2_conv/Conv2D"
  input: "c_1_2_conv/bias/read"
  attr {
    key: "T"
    value {
      type: DT_FLOAT
    }
  }
  attr {
    key: "_output_shapes"
    value {
      list {
        shape {
          dim {
            size: -1
          }
          dim {
            size: 128
          }
          dim {
            size: 128
          }
          dim {
            size: 64
          }
        }
      }
    }
  }
  attr {
    key: "data_format"
    value {
      s: "NHWC"
    }
  }
}
node {
  name: "c_1_2_conv/Relu"
  op: "Relu"
  input: "c_1_2_conv/BiasAdd"
  attr {
    key: "T"
    value {
      type: DT_FLOAT
    }
  }
  attr {
    key: "_output_shapes"
    value {
      list {
        shape {
          dim {
            size: -1
          }
          dim {
            size: 128
          }
          dim {
            size: 128
          }
          dim {
            size: 64
          }
        }
      }
    }
  }
}
node {
  name: "c_1/MaxPool"
  op: "MaxPool"
  input: "c_1_2_conv/Relu"
  attr {
    key: "T"
    value {
      type: DT_FLOAT
    }
  }
  attr {
    key: "_output_shapes"
    value {
      list {
        shape {
          dim {
            size: -1
          }
          dim {
            size: 64
          }
          dim {
            size: 64
          }
          dim {
            size: 64
          }
        }
      }
    }
  }
  attr {
    key: "data_format"
    value {
      s: "NHWC"
    }
  }
  attr {
    key: "ksize"
    value {
      list {
        i: 1
        i: 2
        i: 2
        i: 1
      }
    }
  }
  attr {
    key: "padding"
    value {
      s: "SAME"
    }
  }
  attr {
    key: "strides"
    value {
      list {
        i: 1
        i: 2
        i: 2
        i: 1
      }
    }
  }
}
node {
  name: "c_2_1_conv/kernel/Initializer/random_uniform/shape"
  op: "Const"
  attr {
    key: "_class"
    value {
      list {
        s: "loc:@c_2_1_conv/kernel"
      }
    }
  }
  attr {
    key: "_output_shapes"
    value {
      list {
        shape {
          dim {
            size: 4
          }
        }
      }
    }
  }
  attr {
    key: "dtype"
    value {
      type: DT_INT32
    }
  }
  attr {
    key: "value"
    value {
      tensor {
        dtype: DT_INT32
        tensor_shape {
          dim {
            size: 4
          }
        }
        tensor_content: "\003\000\000\000\003\000\000\000@\000\000\000\200\000\000\000"
      }
    }
  }
}
node {
  name: "c_2_1_conv/kernel/Initializer/random_uniform/min"
  op: "Const"
  attr {
    key: "_class"
    value {
      list {
        s: "loc:@c_2_1_conv/kernel"
      }
    }
  }
  attr {
    key: "_output_shapes"
    value {
      list {
        shape {
        }
      }
    }
  }
  attr {
    key: "dtype"
    value {
      type: DT_FLOAT
    }
  }
  attr {
    key: "value"
    value {
      tensor {
        dtype: DT_FLOAT
        tensor_shape {
        }
        float_val: -0.0589255653321743
      }
    }
  }
}
node {
  name: "c_2_1_conv/kernel/Initializer/random_uniform/max"
  op: "Const"
  attr {
    key: "_class"
    value {
      list {
        s: "loc:@c_2_1_conv/kernel"
      }
    }
  }
  attr {
    key: "_output_shapes"
    value {
      list {
        shape {
        }
      }
    }
  }
  attr {
    key: "dtype"
    value {
      type: DT_FLOAT
    }
  }
  attr {
    key: "value"
    value {
      tensor {
        dtype: DT_FLOAT
        tensor_shape {
        }
        float_val: 0.0589255653321743
      }
    }
  }
}
node {
  name: "c_2_1_conv/kernel/Initializer/random_uniform/RandomUniform"
  op: "RandomUniform"
  input: "c_2_1_conv/kernel/Initializer/random_uniform/shape"
  attr {
    key: "T"
    value {
      type: DT_INT32
    }
  }
  attr {
    key: "_class"
    value {
      list {
        s: "loc:@c_2_1_conv/kernel"
      }
    }
  }
  attr {
    key: "_output_shapes"
    value {
      list {
        shape {
          dim {
            size: 3
          }
          dim {
            size: 3
          }
          dim {
            size: 64
          }
          dim {
            size: 128
          }
        }
      }
    }
  }
  attr {
    key: "dtype"
    value {
      type: DT_FLOAT
    }
  }
  attr {
    key: "seed"
    value {
      i: 0
    }
  }
  attr {
    key: "seed2"
    value {
      i: 0
    }
  }
}
node {
  name: "c_2_1_conv/kernel/Initializer/random_uniform/sub"
  op: "Sub"
  input: "c_2_1_conv/kernel/Initializer/random_uniform/max"
  input: "c_2_1_conv/kernel/Initializer/random_uniform/min"
  attr {
    key: "T"
    value {
      type: DT_FLOAT
    }
  }
  attr {
    key: "_class"
    value {
      list {
        s: "loc:@c_2_1_conv/kernel"
      }
    }
  }
  attr {
    key: "_output_shapes"
    value {
      list {
        shape {
        }
      }
    }
  }
}
node {
  name: "c_2_1_conv/kernel/Initializer/random_uniform/mul"
  op: "Mul"
  input: "c_2_1_conv/kernel/Initializer/random_uniform/RandomUniform"
  input: "c_2_1_conv/kernel/Initializer/random_uniform/sub"
  attr {
    key: "T"
    value {
      type: DT_FLOAT
    }
  }
  attr {
    key: "_class"
    value {
      list {
        s: "loc:@c_2_1_conv/kernel"
      }
    }
  }
  attr {
    key: "_output_shapes"
    value {
      list {
        shape {
          dim {
            size: 3
          }
          dim {
            size: 3
          }
          dim {
            size: 64
          }
          dim {
            size: 128
          }
        }
      }
    }
  }
}
node {
  name: "c_2_1_conv/kernel/Initializer/random_uniform"
  op: "Add"
  input: "c_2_1_conv/kernel/Initializer/random_uniform/mul"
  input: "c_2_1_conv/kernel/Initializer/random_uniform/min"
  attr {
    key: "T"
    value {
      type: DT_FLOAT
    }
  }
  attr {
    key: "_class"
    value {
      list {
        s: "loc:@c_2_1_conv/kernel"
      }
    }
  }
  attr {
    key: "_output_shapes"
    value {
      list {
        shape {
          dim {
            size: 3
          }
          dim {
            size: 3
          }
          dim {
            size: 64
          }
          dim {
            size: 128
          }
        }
      }
    }
  }
}
node {
  name: "c_2_1_conv/kernel"
  op: "VariableV2"
  attr {
    key: "_class"
    value {
      list {
        s: "loc:@c_2_1_conv/kernel"
      }
    }
  }
  attr {
    key: "_output_shapes"
    value {
      list {
        shape {
          dim {
            size: 3
          }
          dim {
            size: 3
          }
          dim {
            size: 64
          }
          dim {
            size: 128
          }
        }
      }
    }
  }
  attr {
    key: "container"
    value {
      s: ""
    }
  }
  attr {
    key: "dtype"
    value {
      type: DT_FLOAT
    }
  }
  attr {
    key: "shape"
    value {
      shape {
        dim {
          size: 3
        }
        dim {
          size: 3
        }
        dim {
          size: 64
        }
        dim {
          size: 128
        }
      }
    }
  }
  attr {
    key: "shared_name"
    value {
      s: ""
    }
  }
}
node {
  name: "c_2_1_conv/kernel/Assign"
  op: "Assign"
  input: "c_2_1_conv/kernel"
  input: "c_2_1_conv/kernel/Initializer/random_uniform"
  attr {
    key: "T"
    value {
      type: DT_FLOAT
    }
  }
  attr {
    key: "_class"
    value {
      list {
        s: "loc:@c_2_1_conv/kernel"
      }
    }
  }
  attr {
    key: "_output_shapes"
    value {
      list {
        shape {
          dim {
            size: 3
          }
          dim {
            size: 3
          }
          dim {
            size: 64
          }
          dim {
            size: 128
          }
        }
      }
    }
  }
  attr {
    key: "use_locking"
    value {
      b: true
    }
  }
  attr {
    key: "validate_shape"
    value {
      b: true
    }
  }
}
node {
  name: "c_2_1_conv/kernel/read"
  op: "Identity"
  input: "c_2_1_conv/kernel"
  attr {
    key: "T"
    value {
      type: DT_FLOAT
    }
  }
  attr {
    key: "_class"
    value {
      list {
        s: "loc:@c_2_1_conv/kernel"
      }
    }
  }
  attr {
    key: "_output_shapes"
    value {
      list {
        shape {
          dim {
            size: 3
          }
          dim {
            size: 3
          }
          dim {
            size: 64
          }
          dim {
            size: 128
          }
        }
      }
    }
  }
}
node {
  name: "c_2_1_conv/bias/Initializer/zeros"
  op: "Const"
  attr {
    key: "_class"
    value {
      list {
        s: "loc:@c_2_1_conv/bias"
      }
    }
  }
  attr {
    key: "_output_shapes"
    value {
      list {
        shape {
          dim {
            size: 128
          }
        }
      }
    }
  }
  attr {
    key: "dtype"
    value {
      type: DT_FLOAT
    }
  }
  attr {
    key: "value"
    value {
      tensor {
        dtype: DT_FLOAT
        tensor_shape {
          dim {
            size: 128
          }
        }
        float_val: 0.0
      }
    }
  }
}
node {
  name: "c_2_1_conv/bias"
  op: "VariableV2"
  attr {
    key: "_class"
    value {
      list {
        s: "loc:@c_2_1_conv/bias"
      }
    }
  }
  attr {
    key: "_output_shapes"
    value {
      list {
        shape {
          dim {
            size: 128
          }
        }
      }
    }
  }
  attr {
    key: "container"
    value {
      s: ""
    }
  }
  attr {
    key: "dtype"
    value {
      type: DT_FLOAT
    }
  }
  attr {
    key: "shape"
    value {
      shape {
        dim {
          size: 128
        }
      }
    }
  }
  attr {
    key: "shared_name"
    value {
      s: ""
    }
  }
}
node {
  name: "c_2_1_conv/bias/Assign"
  op: "Assign"
  input: "c_2_1_conv/bias"
  input: "c_2_1_conv/bias/Initializer/zeros"
  attr {
    key: "T"
    value {
      type: DT_FLOAT
    }
  }
  attr {
    key: "_class"
    value {
      list {
        s: "loc:@c_2_1_conv/bias"
      }
    }
  }
  attr {
    key: "_output_shapes"
    value {
      list {
        shape {
          dim {
            size: 128
          }
        }
      }
    }
  }
  attr {
    key: "use_locking"
    value {
      b: true
    }
  }
  attr {
    key: "validate_shape"
    value {
      b: true
    }
  }
}
node {
  name: "c_2_1_conv/bias/read"
  op: "Identity"
  input: "c_2_1_conv/bias"
  attr {
    key: "T"
    value {
      type: DT_FLOAT
    }
  }
  attr {
    key: "_class"
    value {
      list {
        s: "loc:@c_2_1_conv/bias"
      }
    }
  }
  attr {
    key: "_output_shapes"
    value {
      list {
        shape {
          dim {
            size: 128
          }
        }
      }
    }
  }
}
node {
  name: "c_2_1_conv/dilation_rate"
  op: "Const"
  attr {
    key: "_output_shapes"
    value {
      list {
        shape {
          dim {
            size: 2
          }
        }
      }
    }
  }
  attr {
    key: "dtype"
    value {
      type: DT_INT32
    }
  }
  attr {
    key: "value"
    value {
      tensor {
        dtype: DT_INT32
        tensor_shape {
          dim {
            size: 2
          }
        }
        tensor_content: "\001\000\000\000\001\000\000\000"
      }
    }
  }
}
node {
  name: "c_2_1_conv/Conv2D"
  op: "Conv2D"
  input: "c_1/MaxPool"
  input: "c_2_1_conv/kernel/read"
  attr {
    key: "T"
    value {
      type: DT_FLOAT
    }
  }
  attr {
    key: "_output_shapes"
    value {
      list {
        shape {
          dim {
            size: -1
          }
          dim {
            size: 64
          }
          dim {
            size: 64
          }
          dim {
            size: 128
          }
        }
      }
    }
  }
  attr {
    key: "data_format"
    value {
      s: "NHWC"
    }
  }
  attr {
    key: "dilations"
    value {
      list {
        i: 1
        i: 1
        i: 1
        i: 1
      }
    }
  }
  attr {
    key: "padding"
    value {
      s: "SAME"
    }
  }
  attr {
    key: "strides"
    value {
      list {
        i: 1
        i: 1
        i: 1
        i: 1
      }
    }
  }
  attr {
    key: "use_cudnn_on_gpu"
    value {
      b: true
    }
  }
}
node {
  name: "c_2_1_conv/BiasAdd"
  op: "BiasAdd"
  input: "c_2_1_conv/Conv2D"
  input: "c_2_1_conv/bias/read"
  attr {
    key: "T"
    value {
      type: DT_FLOAT
    }
  }
  attr {
    key: "_output_shapes"
    value {
      list {
        shape {
          dim {
            size: -1
          }
          dim {
            size: 64
          }
          dim {
            size: 64
          }
          dim {
            size: 128
          }
        }
      }
    }
  }
  attr {
    key: "data_format"
    value {
      s: "NHWC"
    }
  }
}
node {
  name: "c_2_1_conv/Relu"
  op: "Relu"
  input: "c_2_1_conv/BiasAdd"
  attr {
    key: "T"
    value {
      type: DT_FLOAT
    }
  }
  attr {
    key: "_output_shapes"
    value {
      list {
        shape {
          dim {
            size: -1
          }
          dim {
            size: 64
          }
          dim {
            size: 64
          }
          dim {
            size: 128
          }
        }
      }
    }
  }
}
node {
  name: "c_2_2_conv/kernel/Initializer/random_uniform/shape"
  op: "Const"
  attr {
    key: "_class"
    value {
      list {
        s: "loc:@c_2_2_conv/kernel"
      }
    }
  }
  attr {
    key: "_output_shapes"
    value {
      list {
        shape {
          dim {
            size: 4
          }
        }
      }
    }
  }
  attr {
    key: "dtype"
    value {
      type: DT_INT32
    }
  }
  attr {
    key: "value"
    value {
      tensor {
        dtype: DT_INT32
        tensor_shape {
          dim {
            size: 4
          }
        }
        tensor_content: "\003\000\000\000\003\000\000\000\200\000\000\000\200\000\000\000"
      }
    }
  }
}
node {
  name: "c_2_2_conv/kernel/Initializer/random_uniform/min"
  op: "Const"
  attr {
    key: "_class"
    value {
      list {
        s: "loc:@c_2_2_conv/kernel"
      }
    }
  }
  attr {
    key: "_output_shapes"
    value {
      list {
        shape {
        }
      }
    }
  }
  attr {
    key: "dtype"
    value {
      type: DT_FLOAT
    }
  }
  attr {
    key: "value"
    value {
      tensor {
        dtype: DT_FLOAT
        tensor_shape {
        }
        float_val: -0.05103103816509247
      }
    }
  }
}
node {
  name: "c_2_2_conv/kernel/Initializer/random_uniform/max"
  op: "Const"
  attr {
    key: "_class"
    value {
      list {
        s: "loc:@c_2_2_conv/kernel"
      }
    }
  }
  attr {
    key: "_output_shapes"
    value {
      list {
        shape {
        }
      }
    }
  }
  attr {
    key: "dtype"
    value {
      type: DT_FLOAT
    }
  }
  attr {
    key: "value"
    value {
      tensor {
        dtype: DT_FLOAT
        tensor_shape {
        }
        float_val: 0.05103103816509247
      }
    }
  }
}
node {
  name: "c_2_2_conv/kernel/Initializer/random_uniform/RandomUniform"
  op: "RandomUniform"
  input: "c_2_2_conv/kernel/Initializer/random_uniform/shape"
  attr {
    key: "T"
    value {
      type: DT_INT32
    }
  }
  attr {
    key: "_class"
    value {
      list {
        s: "loc:@c_2_2_conv/kernel"
      }
    }
  }
  attr {
    key: "_output_shapes"
    value {
      list {
        shape {
          dim {
            size: 3
          }
          dim {
            size: 3
          }
          dim {
            size: 128
          }
          dim {
            size: 128
          }
        }
      }
    }
  }
  attr {
    key: "dtype"
    value {
      type: DT_FLOAT
    }
  }
  attr {
    key: "seed"
    value {
      i: 0
    }
  }
  attr {
    key: "seed2"
    value {
      i: 0
    }
  }
}
node {
  name: "c_2_2_conv/kernel/Initializer/random_uniform/sub"
  op: "Sub"
  input: "c_2_2_conv/kernel/Initializer/random_uniform/max"
  input: "c_2_2_conv/kernel/Initializer/random_uniform/min"
  attr {
    key: "T"
    value {
      type: DT_FLOAT
    }
  }
  attr {
    key: "_class"
    value {
      list {
        s: "loc:@c_2_2_conv/kernel"
      }
    }
  }
  attr {
    key: "_output_shapes"
    value {
      list {
        shape {
        }
      }
    }
  }
}
node {
  name: "c_2_2_conv/kernel/Initializer/random_uniform/mul"
  op: "Mul"
  input: "c_2_2_conv/kernel/Initializer/random_uniform/RandomUniform"
  input: "c_2_2_conv/kernel/Initializer/random_uniform/sub"
  attr {
    key: "T"
    value {
      type: DT_FLOAT
    }
  }
  attr {
    key: "_class"
    value {
      list {
        s: "loc:@c_2_2_conv/kernel"
      }
    }
  }
  attr {
    key: "_output_shapes"
    value {
      list {
        shape {
          dim {
            size: 3
          }
          dim {
            size: 3
          }
          dim {
            size: 128
          }
          dim {
            size: 128
          }
        }
      }
    }
  }
}
node {
  name: "c_2_2_conv/kernel/Initializer/random_uniform"
  op: "Add"
  input: "c_2_2_conv/kernel/Initializer/random_uniform/mul"
  input: "c_2_2_conv/kernel/Initializer/random_uniform/min"
  attr {
    key: "T"
    value {
      type: DT_FLOAT
    }
  }
  attr {
    key: "_class"
    value {
      list {
        s: "loc:@c_2_2_conv/kernel"
      }
    }
  }
  attr {
    key: "_output_shapes"
    value {
      list {
        shape {
          dim {
            size: 3
          }
          dim {
            size: 3
          }
          dim {
            size: 128
          }
          dim {
            size: 128
          }
        }
      }
    }
  }
}
node {
  name: "c_2_2_conv/kernel"
  op: "VariableV2"
  attr {
    key: "_class"
    value {
      list {
        s: "loc:@c_2_2_conv/kernel"
      }
    }
  }
  attr {
    key: "_output_shapes"
    value {
      list {
        shape {
          dim {
            size: 3
          }
          dim {
            size: 3
          }
          dim {
            size: 128
          }
          dim {
            size: 128
          }
        }
      }
    }
  }
  attr {
    key: "container"
    value {
      s: ""
    }
  }
  attr {
    key: "dtype"
    value {
      type: DT_FLOAT
    }
  }
  attr {
    key: "shape"
    value {
      shape {
        dim {
          size: 3
        }
        dim {
          size: 3
        }
        dim {
          size: 128
        }
        dim {
          size: 128
        }
      }
    }
  }
  attr {
    key: "shared_name"
    value {
      s: ""
    }
  }
}
node {
  name: "c_2_2_conv/kernel/Assign"
  op: "Assign"
  input: "c_2_2_conv/kernel"
  input: "c_2_2_conv/kernel/Initializer/random_uniform"
  attr {
    key: "T"
    value {
      type: DT_FLOAT
    }
  }
  attr {
    key: "_class"
    value {
      list {
        s: "loc:@c_2_2_conv/kernel"
      }
    }
  }
  attr {
    key: "_output_shapes"
    value {
      list {
        shape {
          dim {
            size: 3
          }
          dim {
            size: 3
          }
          dim {
            size: 128
          }
          dim {
            size: 128
          }
        }
      }
    }
  }
  attr {
    key: "use_locking"
    value {
      b: true
    }
  }
  attr {
    key: "validate_shape"
    value {
      b: true
    }
  }
}
node {
  name: "c_2_2_conv/kernel/read"
  op: "Identity"
  input: "c_2_2_conv/kernel"
  attr {
    key: "T"
    value {
      type: DT_FLOAT
    }
  }
  attr {
    key: "_class"
    value {
      list {
        s: "loc:@c_2_2_conv/kernel"
      }
    }
  }
  attr {
    key: "_output_shapes"
    value {
      list {
        shape {
          dim {
            size: 3
          }
          dim {
            size: 3
          }
          dim {
            size: 128
          }
          dim {
            size: 128
          }
        }
      }
    }
  }
}
node {
  name: "c_2_2_conv/bias/Initializer/zeros"
  op: "Const"
  attr {
    key: "_class"
    value {
      list {
        s: "loc:@c_2_2_conv/bias"
      }
    }
  }
  attr {
    key: "_output_shapes"
    value {
      list {
        shape {
          dim {
            size: 128
          }
        }
      }
    }
  }
  attr {
    key: "dtype"
    value {
      type: DT_FLOAT
    }
  }
  attr {
    key: "value"
    value {
      tensor {
        dtype: DT_FLOAT
        tensor_shape {
          dim {
            size: 128
          }
        }
        float_val: 0.0
      }
    }
  }
}
node {
  name: "c_2_2_conv/bias"
  op: "VariableV2"
  attr {
    key: "_class"
    value {
      list {
        s: "loc:@c_2_2_conv/bias"
      }
    }
  }
  attr {
    key: "_output_shapes"
    value {
      list {
        shape {
          dim {
            size: 128
          }
        }
      }
    }
  }
  attr {
    key: "container"
    value {
      s: ""
    }
  }
  attr {
    key: "dtype"
    value {
      type: DT_FLOAT
    }
  }
  attr {
    key: "shape"
    value {
      shape {
        dim {
          size: 128
        }
      }
    }
  }
  attr {
    key: "shared_name"
    value {
      s: ""
    }
  }
}
node {
  name: "c_2_2_conv/bias/Assign"
  op: "Assign"
  input: "c_2_2_conv/bias"
  input: "c_2_2_conv/bias/Initializer/zeros"
  attr {
    key: "T"
    value {
      type: DT_FLOAT
    }
  }
  attr {
    key: "_class"
    value {
      list {
        s: "loc:@c_2_2_conv/bias"
      }
    }
  }
  attr {
    key: "_output_shapes"
    value {
      list {
        shape {
          dim {
            size: 128
          }
        }
      }
    }
  }
  attr {
    key: "use_locking"
    value {
      b: true
    }
  }
  attr {
    key: "validate_shape"
    value {
      b: true
    }
  }
}
node {
  name: "c_2_2_conv/bias/read"
  op: "Identity"
  input: "c_2_2_conv/bias"
  attr {
    key: "T"
    value {
      type: DT_FLOAT
    }
  }
  attr {
    key: "_class"
    value {
      list {
        s: "loc:@c_2_2_conv/bias"
      }
    }
  }
  attr {
    key: "_output_shapes"
    value {
      list {
        shape {
          dim {
            size: 128
          }
        }
      }
    }
  }
}
node {
  name: "c_2_2_conv/dilation_rate"
  op: "Const"
  attr {
    key: "_output_shapes"
    value {
      list {
        shape {
          dim {
            size: 2
          }
        }
      }
    }
  }
  attr {
    key: "dtype"
    value {
      type: DT_INT32
    }
  }
  attr {
    key: "value"
    value {
      tensor {
        dtype: DT_INT32
        tensor_shape {
          dim {
            size: 2
          }
        }
        tensor_content: "\001\000\000\000\001\000\000\000"
      }
    }
  }
}
node {
  name: "c_2_2_conv/Conv2D"
  op: "Conv2D"
  input: "c_2_1_conv/Relu"
  input: "c_2_2_conv/kernel/read"
  attr {
    key: "T"
    value {
      type: DT_FLOAT
    }
  }
  attr {
    key: "_output_shapes"
    value {
      list {
        shape {
          dim {
            size: -1
          }
          dim {
            size: 64
          }
          dim {
            size: 64
          }
          dim {
            size: 128
          }
        }
      }
    }
  }
  attr {
    key: "data_format"
    value {
      s: "NHWC"
    }
  }
  attr {
    key: "dilations"
    value {
      list {
        i: 1
        i: 1
        i: 1
        i: 1
      }
    }
  }
  attr {
    key: "padding"
    value {
      s: "SAME"
    }
  }
  attr {
    key: "strides"
    value {
      list {
        i: 1
        i: 1
        i: 1
        i: 1
      }
    }
  }
  attr {
    key: "use_cudnn_on_gpu"
    value {
      b: true
    }
  }
}
node {
  name: "c_2_2_conv/BiasAdd"
  op: "BiasAdd"
  input: "c_2_2_conv/Conv2D"
  input: "c_2_2_conv/bias/read"
  attr {
    key: "T"
    value {
      type: DT_FLOAT
    }
  }
  attr {
    key: "_output_shapes"
    value {
      list {
        shape {
          dim {
            size: -1
          }
          dim {
            size: 64
          }
          dim {
            size: 64
          }
          dim {
            size: 128
          }
        }
      }
    }
  }
  attr {
    key: "data_format"
    value {
      s: "NHWC"
    }
  }
}
node {
  name: "c_2_2_conv/Relu"
  op: "Relu"
  input: "c_2_2_conv/BiasAdd"
  attr {
    key: "T"
    value {
      type: DT_FLOAT
    }
  }
  attr {
    key: "_output_shapes"
    value {
      list {
        shape {
          dim {
            size: -1
          }
          dim {
            size: 64
          }
          dim {
            size: 64
          }
          dim {
            size: 128
          }
        }
      }
    }
  }
}
node {
  name: "c_2/MaxPool"
  op: "MaxPool"
  input: "c_2_2_conv/Relu"
  attr {
    key: "T"
    value {
      type: DT_FLOAT
    }
  }
  attr {
    key: "_output_shapes"
    value {
      list {
        shape {
          dim {
            size: -1
          }
          dim {
            size: 32
          }
          dim {
            size: 32
          }
          dim {
            size: 128
          }
        }
      }
    }
  }
  attr {
    key: "data_format"
    value {
      s: "NHWC"
    }
  }
  attr {
    key: "ksize"
    value {
      list {
        i: 1
        i: 2
        i: 2
        i: 1
      }
    }
  }
  attr {
    key: "padding"
    value {
      s: "SAME"
    }
  }
  attr {
    key: "strides"
    value {
      list {
        i: 1
        i: 2
        i: 2
        i: 1
      }
    }
  }
}
node {
  name: "m_1_conv/kernel/Initializer/random_uniform/shape"
  op: "Const"
  attr {
    key: "_class"
    value {
      list {
        s: "loc:@m_1_conv/kernel"
      }
    }
  }
  attr {
    key: "_output_shapes"
    value {
      list {
        shape {
          dim {
            size: 4
          }
        }
      }
    }
  }
  attr {
    key: "dtype"
    value {
      type: DT_INT32
    }
  }
  attr {
    key: "value"
    value {
      tensor {
        dtype: DT_INT32
        tensor_shape {
          dim {
            size: 4
          }
        }
        tensor_content: "\003\000\000\000\003\000\000\000\200\000\000\000\000\001\000\000"
      }
    }
  }
}
node {
  name: "m_1_conv/kernel/Initializer/random_uniform/min"
  op: "Const"
  attr {
    key: "_class"
    value {
      list {
        s: "loc:@m_1_conv/kernel"
      }
    }
  }
  attr {
    key: "_output_shapes"
    value {
      list {
        shape {
        }
      }
    }
  }
  attr {
    key: "dtype"
    value {
      type: DT_FLOAT
    }
  }
  attr {
    key: "value"
    value {
      tensor {
        dtype: DT_FLOAT
        tensor_shape {
        }
        float_val: -0.0416666679084301
      }
    }
  }
}
node {
  name: "m_1_conv/kernel/Initializer/random_uniform/max"
  op: "Const"
  attr {
    key: "_class"
    value {
      list {
        s: "loc:@m_1_conv/kernel"
      }
    }
  }
  attr {
    key: "_output_shapes"
    value {
      list {
        shape {
        }
      }
    }
  }
  attr {
    key: "dtype"
    value {
      type: DT_FLOAT
    }
  }
  attr {
    key: "value"
    value {
      tensor {
        dtype: DT_FLOAT
        tensor_shape {
        }
        float_val: 0.0416666679084301
      }
    }
  }
}
node {
  name: "m_1_conv/kernel/Initializer/random_uniform/RandomUniform"
  op: "RandomUniform"
  input: "m_1_conv/kernel/Initializer/random_uniform/shape"
  attr {
    key: "T"
    value {
      type: DT_INT32
    }
  }
  attr {
    key: "_class"
    value {
      list {
        s: "loc:@m_1_conv/kernel"
      }
    }
  }
  attr {
    key: "_output_shapes"
    value {
      list {
        shape {
          dim {
            size: 3
          }
          dim {
            size: 3
          }
          dim {
            size: 128
          }
          dim {
            size: 256
          }
        }
      }
    }
  }
  attr {
    key: "dtype"
    value {
      type: DT_FLOAT
    }
  }
  attr {
    key: "seed"
    value {
      i: 0
    }
  }
  attr {
    key: "seed2"
    value {
      i: 0
    }
  }
}
node {
  name: "m_1_conv/kernel/Initializer/random_uniform/sub"
  op: "Sub"
  input: "m_1_conv/kernel/Initializer/random_uniform/max"
  input: "m_1_conv/kernel/Initializer/random_uniform/min"
  attr {
    key: "T"
    value {
      type: DT_FLOAT
    }
  }
  attr {
    key: "_class"
    value {
      list {
        s: "loc:@m_1_conv/kernel"
      }
    }
  }
  attr {
    key: "_output_shapes"
    value {
      list {
        shape {
        }
      }
    }
  }
}
node {
  name: "m_1_conv/kernel/Initializer/random_uniform/mul"
  op: "Mul"
  input: "m_1_conv/kernel/Initializer/random_uniform/RandomUniform"
  input: "m_1_conv/kernel/Initializer/random_uniform/sub"
  attr {
    key: "T"
    value {
      type: DT_FLOAT
    }
  }
  attr {
    key: "_class"
    value {
      list {
        s: "loc:@m_1_conv/kernel"
      }
    }
  }
  attr {
    key: "_output_shapes"
    value {
      list {
        shape {
          dim {
            size: 3
          }
          dim {
            size: 3
          }
          dim {
            size: 128
          }
          dim {
            size: 256
          }
        }
      }
    }
  }
}
node {
  name: "m_1_conv/kernel/Initializer/random_uniform"
  op: "Add"
  input: "m_1_conv/kernel/Initializer/random_uniform/mul"
  input: "m_1_conv/kernel/Initializer/random_uniform/min"
  attr {
    key: "T"
    value {
      type: DT_FLOAT
    }
  }
  attr {
    key: "_class"
    value {
      list {
        s: "loc:@m_1_conv/kernel"
      }
    }
  }
  attr {
    key: "_output_shapes"
    value {
      list {
        shape {
          dim {
            size: 3
          }
          dim {
            size: 3
          }
          dim {
            size: 128
          }
          dim {
            size: 256
          }
        }
      }
    }
  }
}
node {
  name: "m_1_conv/kernel"
  op: "VariableV2"
  attr {
    key: "_class"
    value {
      list {
        s: "loc:@m_1_conv/kernel"
      }
    }
  }
  attr {
    key: "_output_shapes"
    value {
      list {
        shape {
          dim {
            size: 3
          }
          dim {
            size: 3
          }
          dim {
            size: 128
          }
          dim {
            size: 256
          }
        }
      }
    }
  }
  attr {
    key: "container"
    value {
      s: ""
    }
  }
  attr {
    key: "dtype"
    value {
      type: DT_FLOAT
    }
  }
  attr {
    key: "shape"
    value {
      shape {
        dim {
          size: 3
        }
        dim {
          size: 3
        }
        dim {
          size: 128
        }
        dim {
          size: 256
        }
      }
    }
  }
  attr {
    key: "shared_name"
    value {
      s: ""
    }
  }
}
node {
  name: "m_1_conv/kernel/Assign"
  op: "Assign"
  input: "m_1_conv/kernel"
  input: "m_1_conv/kernel/Initializer/random_uniform"
  attr {
    key: "T"
    value {
      type: DT_FLOAT
    }
  }
  attr {
    key: "_class"
    value {
      list {
        s: "loc:@m_1_conv/kernel"
      }
    }
  }
  attr {
    key: "_output_shapes"
    value {
      list {
        shape {
          dim {
            size: 3
          }
          dim {
            size: 3
          }
          dim {
            size: 128
          }
          dim {
            size: 256
          }
        }
      }
    }
  }
  attr {
    key: "use_locking"
    value {
      b: true
    }
  }
  attr {
    key: "validate_shape"
    value {
      b: true
    }
  }
}
node {
  name: "m_1_conv/kernel/read"
  op: "Identity"
  input: "m_1_conv/kernel"
  attr {
    key: "T"
    value {
      type: DT_FLOAT
    }
  }
  attr {
    key: "_class"
    value {
      list {
        s: "loc:@m_1_conv/kernel"
      }
    }
  }
  attr {
    key: "_output_shapes"
    value {
      list {
        shape {
          dim {
            size: 3
          }
          dim {
            size: 3
          }
          dim {
            size: 128
          }
          dim {
            size: 256
          }
        }
      }
    }
  }
}
node {
  name: "m_1_conv/bias/Initializer/zeros"
  op: "Const"
  attr {
    key: "_class"
    value {
      list {
        s: "loc:@m_1_conv/bias"
      }
    }
  }
  attr {
    key: "_output_shapes"
    value {
      list {
        shape {
          dim {
            size: 256
          }
        }
      }
    }
  }
  attr {
    key: "dtype"
    value {
      type: DT_FLOAT
    }
  }
  attr {
    key: "value"
    value {
      tensor {
        dtype: DT_FLOAT
        tensor_shape {
          dim {
            size: 256
          }
        }
        float_val: 0.0
      }
    }
  }
}
node {
  name: "m_1_conv/bias"
  op: "VariableV2"
  attr {
    key: "_class"
    value {
      list {
        s: "loc:@m_1_conv/bias"
      }
    }
  }
  attr {
    key: "_output_shapes"
    value {
      list {
        shape {
          dim {
            size: 256
          }
        }
      }
    }
  }
  attr {
    key: "container"
    value {
      s: ""
    }
  }
  attr {
    key: "dtype"
    value {
      type: DT_FLOAT
    }
  }
  attr {
    key: "shape"
    value {
      shape {
        dim {
          size: 256
        }
      }
    }
  }
  attr {
    key: "shared_name"
    value {
      s: ""
    }
  }
}
node {
  name: "m_1_conv/bias/Assign"
  op: "Assign"
  input: "m_1_conv/bias"
  input: "m_1_conv/bias/Initializer/zeros"
  attr {
    key: "T"
    value {
      type: DT_FLOAT
    }
  }
  attr {
    key: "_class"
    value {
      list {
        s: "loc:@m_1_conv/bias"
      }
    }
  }
  attr {
    key: "_output_shapes"
    value {
      list {
        shape {
          dim {
            size: 256
          }
        }
      }
    }
  }
  attr {
    key: "use_locking"
    value {
      b: true
    }
  }
  attr {
    key: "validate_shape"
    value {
      b: true
    }
  }
}
node {
  name: "m_1_conv/bias/read"
  op: "Identity"
  input: "m_1_conv/bias"
  attr {
    key: "T"
    value {
      type: DT_FLOAT
    }
  }
  attr {
    key: "_class"
    value {
      list {
        s: "loc:@m_1_conv/bias"
      }
    }
  }
  attr {
    key: "_output_shapes"
    value {
      list {
        shape {
          dim {
            size: 256
          }
        }
      }
    }
  }
}
node {
  name: "m_1_conv/dilation_rate"
  op: "Const"
  attr {
    key: "_output_shapes"
    value {
      list {
        shape {
          dim {
            size: 2
          }
        }
      }
    }
  }
  attr {
    key: "dtype"
    value {
      type: DT_INT32
    }
  }
  attr {
    key: "value"
    value {
      tensor {
        dtype: DT_INT32
        tensor_shape {
          dim {
            size: 2
          }
        }
        tensor_content: "\001\000\000\000\001\000\000\000"
      }
    }
  }
}
node {
  name: "m_1_conv/Conv2D"
  op: "Conv2D"
  input: "c_2/MaxPool"
  input: "m_1_conv/kernel/read"
  attr {
    key: "T"
    value {
      type: DT_FLOAT
    }
  }
  attr {
    key: "_output_shapes"
    value {
      list {
        shape {
          dim {
            size: -1
          }
          dim {
            size: 32
          }
          dim {
            size: 32
          }
          dim {
            size: 256
          }
        }
      }
    }
  }
  attr {
    key: "data_format"
    value {
      s: "NHWC"
    }
  }
  attr {
    key: "dilations"
    value {
      list {
        i: 1
        i: 1
        i: 1
        i: 1
      }
    }
  }
  attr {
    key: "padding"
    value {
      s: "SAME"
    }
  }
  attr {
    key: "strides"
    value {
      list {
        i: 1
        i: 1
        i: 1
        i: 1
      }
    }
  }
  attr {
    key: "use_cudnn_on_gpu"
    value {
      b: true
    }
  }
}
node {
  name: "m_1_conv/BiasAdd"
  op: "BiasAdd"
  input: "m_1_conv/Conv2D"
  input: "m_1_conv/bias/read"
  attr {
    key: "T"
    value {
      type: DT_FLOAT
    }
  }
  attr {
    key: "_output_shapes"
    value {
      list {
        shape {
          dim {
            size: -1
          }
          dim {
            size: 32
          }
          dim {
            size: 32
          }
          dim {
            size: 256
          }
        }
      }
    }
  }
  attr {
    key: "data_format"
    value {
      s: "NHWC"
    }
  }
}
node {
  name: "m_1_conv/Relu"
  op: "Relu"
  input: "m_1_conv/BiasAdd"
  attr {
    key: "T"
    value {
      type: DT_FLOAT
    }
  }
  attr {
    key: "_output_shapes"
    value {
      list {
        shape {
          dim {
            size: -1
          }
          dim {
            size: 32
          }
          dim {
            size: 32
          }
          dim {
            size: 256
          }
        }
      }
    }
  }
}
node {
  name: "m_2_conv/kernel/Initializer/random_uniform/shape"
  op: "Const"
  attr {
    key: "_class"
    value {
      list {
        s: "loc:@m_2_conv/kernel"
      }
    }
  }
  attr {
    key: "_output_shapes"
    value {
      list {
        shape {
          dim {
            size: 4
          }
        }
      }
    }
  }
  attr {
    key: "dtype"
    value {
      type: DT_INT32
    }
  }
  attr {
    key: "value"
    value {
      tensor {
        dtype: DT_INT32
        tensor_shape {
          dim {
            size: 4
          }
        }
        tensor_content: "\003\000\000\000\003\000\000\000\000\001\000\000\000\001\000\000"
      }
    }
  }
}
node {
  name: "m_2_conv/kernel/Initializer/random_uniform/min"
  op: "Const"
  attr {
    key: "_class"
    value {
      list {
        s: "loc:@m_2_conv/kernel"
      }
    }
  }
  attr {
    key: "_output_shapes"
    value {
      list {
        shape {
        }
      }
    }
  }
  attr {
    key: "dtype"
    value {
      type: DT_FLOAT
    }
  }
  attr {
    key: "value"
    value {
      tensor {
        dtype: DT_FLOAT
        tensor_shape {
        }
        float_val: -0.03608439117670059
      }
    }
  }
}
node {
  name: "m_2_conv/kernel/Initializer/random_uniform/max"
  op: "Const"
  attr {
    key: "_class"
    value {
      list {
        s: "loc:@m_2_conv/kernel"
      }
    }
  }
  attr {
    key: "_output_shapes"
    value {
      list {
        shape {
        }
      }
    }
  }
  attr {
    key: "dtype"
    value {
      type: DT_FLOAT
    }
  }
  attr {
    key: "value"
    value {
      tensor {
        dtype: DT_FLOAT
        tensor_shape {
        }
        float_val: 0.03608439117670059
      }
    }
  }
}
node {
  name: "m_2_conv/kernel/Initializer/random_uniform/RandomUniform"
  op: "RandomUniform"
  input: "m_2_conv/kernel/Initializer/random_uniform/shape"
  attr {
    key: "T"
    value {
      type: DT_INT32
    }
  }
  attr {
    key: "_class"
    value {
      list {
        s: "loc:@m_2_conv/kernel"
      }
    }
  }
  attr {
    key: "_output_shapes"
    value {
      list {
        shape {
          dim {
            size: 3
          }
          dim {
            size: 3
          }
          dim {
            size: 256
          }
          dim {
            size: 256
          }
        }
      }
    }
  }
  attr {
    key: "dtype"
    value {
      type: DT_FLOAT
    }
  }
  attr {
    key: "seed"
    value {
      i: 0
    }
  }
  attr {
    key: "seed2"
    value {
      i: 0
    }
  }
}
node {
  name: "m_2_conv/kernel/Initializer/random_uniform/sub"
  op: "Sub"
  input: "m_2_conv/kernel/Initializer/random_uniform/max"
  input: "m_2_conv/kernel/Initializer/random_uniform/min"
  attr {
    key: "T"
    value {
      type: DT_FLOAT
    }
  }
  attr {
    key: "_class"
    value {
      list {
        s: "loc:@m_2_conv/kernel"
      }
    }
  }
  attr {
    key: "_output_shapes"
    value {
      list {
        shape {
        }
      }
    }
  }
}
node {
  name: "m_2_conv/kernel/Initializer/random_uniform/mul"
  op: "Mul"
  input: "m_2_conv/kernel/Initializer/random_uniform/RandomUniform"
  input: "m_2_conv/kernel/Initializer/random_uniform/sub"
  attr {
    key: "T"
    value {
      type: DT_FLOAT
    }
  }
  attr {
    key: "_class"
    value {
      list {
        s: "loc:@m_2_conv/kernel"
      }
    }
  }
  attr {
    key: "_output_shapes"
    value {
      list {
        shape {
          dim {
            size: 3
          }
          dim {
            size: 3
          }
          dim {
            size: 256
          }
          dim {
            size: 256
          }
        }
      }
    }
  }
}
node {
  name: "m_2_conv/kernel/Initializer/random_uniform"
  op: "Add"
  input: "m_2_conv/kernel/Initializer/random_uniform/mul"
  input: "m_2_conv/kernel/Initializer/random_uniform/min"
  attr {
    key: "T"
    value {
      type: DT_FLOAT
    }
  }
  attr {
    key: "_class"
    value {
      list {
        s: "loc:@m_2_conv/kernel"
      }
    }
  }
  attr {
    key: "_output_shapes"
    value {
      list {
        shape {
          dim {
            size: 3
          }
          dim {
            size: 3
          }
          dim {
            size: 256
          }
          dim {
            size: 256
          }
        }
      }
    }
  }
}
node {
  name: "m_2_conv/kernel"
  op: "VariableV2"
  attr {
    key: "_class"
    value {
      list {
        s: "loc:@m_2_conv/kernel"
      }
    }
  }
  attr {
    key: "_output_shapes"
    value {
      list {
        shape {
          dim {
            size: 3
          }
          dim {
            size: 3
          }
          dim {
            size: 256
          }
          dim {
            size: 256
          }
        }
      }
    }
  }
  attr {
    key: "container"
    value {
      s: ""
    }
  }
  attr {
    key: "dtype"
    value {
      type: DT_FLOAT
    }
  }
  attr {
    key: "shape"
    value {
      shape {
        dim {
          size: 3
        }
        dim {
          size: 3
        }
        dim {
          size: 256
        }
        dim {
          size: 256
        }
      }
    }
  }
  attr {
    key: "shared_name"
    value {
      s: ""
    }
  }
}
node {
  name: "m_2_conv/kernel/Assign"
  op: "Assign"
  input: "m_2_conv/kernel"
  input: "m_2_conv/kernel/Initializer/random_uniform"
  attr {
    key: "T"
    value {
      type: DT_FLOAT
    }
  }
  attr {
    key: "_class"
    value {
      list {
        s: "loc:@m_2_conv/kernel"
      }
    }
  }
  attr {
    key: "_output_shapes"
    value {
      list {
        shape {
          dim {
            size: 3
          }
          dim {
            size: 3
          }
          dim {
            size: 256
          }
          dim {
            size: 256
          }
        }
      }
    }
  }
  attr {
    key: "use_locking"
    value {
      b: true
    }
  }
  attr {
    key: "validate_shape"
    value {
      b: true
    }
  }
}
node {
  name: "m_2_conv/kernel/read"
  op: "Identity"
  input: "m_2_conv/kernel"
  attr {
    key: "T"
    value {
      type: DT_FLOAT
    }
  }
  attr {
    key: "_class"
    value {
      list {
        s: "loc:@m_2_conv/kernel"
      }
    }
  }
  attr {
    key: "_output_shapes"
    value {
      list {
        shape {
          dim {
            size: 3
          }
          dim {
            size: 3
          }
          dim {
            size: 256
          }
          dim {
            size: 256
          }
        }
      }
    }
  }
}
node {
  name: "m_2_conv/bias/Initializer/zeros"
  op: "Const"
  attr {
    key: "_class"
    value {
      list {
        s: "loc:@m_2_conv/bias"
      }
    }
  }
  attr {
    key: "_output_shapes"
    value {
      list {
        shape {
          dim {
            size: 256
          }
        }
      }
    }
  }
  attr {
    key: "dtype"
    value {
      type: DT_FLOAT
    }
  }
  attr {
    key: "value"
    value {
      tensor {
        dtype: DT_FLOAT
        tensor_shape {
          dim {
            size: 256
          }
        }
        float_val: 0.0
      }
    }
  }
}
node {
  name: "m_2_conv/bias"
  op: "VariableV2"
  attr {
    key: "_class"
    value {
      list {
        s: "loc:@m_2_conv/bias"
      }
    }
  }
  attr {
    key: "_output_shapes"
    value {
      list {
        shape {
          dim {
            size: 256
          }
        }
      }
    }
  }
  attr {
    key: "container"
    value {
      s: ""
    }
  }
  attr {
    key: "dtype"
    value {
      type: DT_FLOAT
    }
  }
  attr {
    key: "shape"
    value {
      shape {
        dim {
          size: 256
        }
      }
    }
  }
  attr {
    key: "shared_name"
    value {
      s: ""
    }
  }
}
node {
  name: "m_2_conv/bias/Assign"
  op: "Assign"
  input: "m_2_conv/bias"
  input: "m_2_conv/bias/Initializer/zeros"
  attr {
    key: "T"
    value {
      type: DT_FLOAT
    }
  }
  attr {
    key: "_class"
    value {
      list {
        s: "loc:@m_2_conv/bias"
      }
    }
  }
  attr {
    key: "_output_shapes"
    value {
      list {
        shape {
          dim {
            size: 256
          }
        }
      }
    }
  }
  attr {
    key: "use_locking"
    value {
      b: true
    }
  }
  attr {
    key: "validate_shape"
    value {
      b: true
    }
  }
}
node {
  name: "m_2_conv/bias/read"
  op: "Identity"
  input: "m_2_conv/bias"
  attr {
    key: "T"
    value {
      type: DT_FLOAT
    }
  }
  attr {
    key: "_class"
    value {
      list {
        s: "loc:@m_2_conv/bias"
      }
    }
  }
  attr {
    key: "_output_shapes"
    value {
      list {
        shape {
          dim {
            size: 256
          }
        }
      }
    }
  }
}
node {
  name: "m_2_conv/dilation_rate"
  op: "Const"
  attr {
    key: "_output_shapes"
    value {
      list {
        shape {
          dim {
            size: 2
          }
        }
      }
    }
  }
  attr {
    key: "dtype"
    value {
      type: DT_INT32
    }
  }
  attr {
    key: "value"
    value {
      tensor {
        dtype: DT_INT32
        tensor_shape {
          dim {
            size: 2
          }
        }
        tensor_content: "\001\000\000\000\001\000\000\000"
      }
    }
  }
}
node {
  name: "m_2_conv/Conv2D"
  op: "Conv2D"
  input: "m_1_conv/Relu"
  input: "m_2_conv/kernel/read"
  attr {
    key: "T"
    value {
      type: DT_FLOAT
    }
  }
  attr {
    key: "_output_shapes"
    value {
      list {
        shape {
          dim {
            size: -1
          }
          dim {
            size: 32
          }
          dim {
            size: 32
          }
          dim {
            size: 256
          }
        }
      }
    }
  }
  attr {
    key: "data_format"
    value {
      s: "NHWC"
    }
  }
  attr {
    key: "dilations"
    value {
      list {
        i: 1
        i: 1
        i: 1
        i: 1
      }
    }
  }
  attr {
    key: "padding"
    value {
      s: "SAME"
    }
  }
  attr {
    key: "strides"
    value {
      list {
        i: 1
        i: 1
        i: 1
        i: 1
      }
    }
  }
  attr {
    key: "use_cudnn_on_gpu"
    value {
      b: true
    }
  }
}
node {
  name: "m_2_conv/BiasAdd"
  op: "BiasAdd"
  input: "m_2_conv/Conv2D"
  input: "m_2_conv/bias/read"
  attr {
    key: "T"
    value {
      type: DT_FLOAT
    }
  }
  attr {
    key: "_output_shapes"
    value {
      list {
        shape {
          dim {
            size: -1
          }
          dim {
            size: 32
          }
          dim {
            size: 32
          }
          dim {
            size: 256
          }
        }
      }
    }
  }
  attr {
    key: "data_format"
    value {
      s: "NHWC"
    }
  }
}
node {
  name: "m_2_conv/Relu"
  op: "Relu"
  input: "m_2_conv/BiasAdd"
  attr {
    key: "T"
    value {
      type: DT_FLOAT
    }
  }
  attr {
    key: "_output_shapes"
    value {
      list {
        shape {
          dim {
            size: -1
          }
          dim {
            size: 32
          }
          dim {
            size: 32
          }
          dim {
            size: 256
          }
        }
      }
    }
  }
}
node {
  name: "e_0_upconv/kernel/Initializer/random_uniform/shape"
  op: "Const"
  attr {
    key: "_class"
    value {
      list {
        s: "loc:@e_0_upconv/kernel"
      }
    }
  }
  attr {
    key: "_output_shapes"
    value {
      list {
        shape {
          dim {
            size: 4
          }
        }
      }
    }
  }
  attr {
    key: "dtype"
    value {
      type: DT_INT32
    }
  }
  attr {
    key: "value"
    value {
      tensor {
        dtype: DT_INT32
        tensor_shape {
          dim {
            size: 4
          }
        }
        tensor_content: "\002\000\000\000\002\000\000\000\200\000\000\000\000\001\000\000"
      }
    }
  }
}
node {
  name: "e_0_upconv/kernel/Initializer/random_uniform/min"
  op: "Const"
  attr {
    key: "_class"
    value {
      list {
        s: "loc:@e_0_upconv/kernel"
      }
    }
  }
  attr {
    key: "_output_shapes"
    value {
      list {
        shape {
        }
      }
    }
  }
  attr {
    key: "dtype"
    value {
      type: DT_FLOAT
    }
  }
  attr {
    key: "value"
    value {
      tensor {
        dtype: DT_FLOAT
        tensor_shape {
        }
        float_val: -0.0625
      }
    }
  }
}
node {
  name: "e_0_upconv/kernel/Initializer/random_uniform/max"
  op: "Const"
  attr {
    key: "_class"
    value {
      list {
        s: "loc:@e_0_upconv/kernel"
      }
    }
  }
  attr {
    key: "_output_shapes"
    value {
      list {
        shape {
        }
      }
    }
  }
  attr {
    key: "dtype"
    value {
      type: DT_FLOAT
    }
  }
  attr {
    key: "value"
    value {
      tensor {
        dtype: DT_FLOAT
        tensor_shape {
        }
        float_val: 0.0625
      }
    }
  }
}
node {
  name: "e_0_upconv/kernel/Initializer/random_uniform/RandomUniform"
  op: "RandomUniform"
  input: "e_0_upconv/kernel/Initializer/random_uniform/shape"
  attr {
    key: "T"
    value {
      type: DT_INT32
    }
  }
  attr {
    key: "_class"
    value {
      list {
        s: "loc:@e_0_upconv/kernel"
      }
    }
  }
  attr {
    key: "_output_shapes"
    value {
      list {
        shape {
          dim {
            size: 2
          }
          dim {
            size: 2
          }
          dim {
            size: 128
          }
          dim {
            size: 256
          }
        }
      }
    }
  }
  attr {
    key: "dtype"
    value {
      type: DT_FLOAT
    }
  }
  attr {
    key: "seed"
    value {
      i: 0
    }
  }
  attr {
    key: "seed2"
    value {
      i: 0
    }
  }
}
node {
  name: "e_0_upconv/kernel/Initializer/random_uniform/sub"
  op: "Sub"
  input: "e_0_upconv/kernel/Initializer/random_uniform/max"
  input: "e_0_upconv/kernel/Initializer/random_uniform/min"
  attr {
    key: "T"
    value {
      type: DT_FLOAT
    }
  }
  attr {
    key: "_class"
    value {
      list {
        s: "loc:@e_0_upconv/kernel"
      }
    }
  }
  attr {
    key: "_output_shapes"
    value {
      list {
        shape {
        }
      }
    }
  }
}
node {
  name: "e_0_upconv/kernel/Initializer/random_uniform/mul"
  op: "Mul"
  input: "e_0_upconv/kernel/Initializer/random_uniform/RandomUniform"
  input: "e_0_upconv/kernel/Initializer/random_uniform/sub"
  attr {
    key: "T"
    value {
      type: DT_FLOAT
    }
  }
  attr {
    key: "_class"
    value {
      list {
        s: "loc:@e_0_upconv/kernel"
      }
    }
  }
  attr {
    key: "_output_shapes"
    value {
      list {
        shape {
          dim {
            size: 2
          }
          dim {
            size: 2
          }
          dim {
            size: 128
          }
          dim {
            size: 256
          }
        }
      }
    }
  }
}
node {
  name: "e_0_upconv/kernel/Initializer/random_uniform"
  op: "Add"
  input: "e_0_upconv/kernel/Initializer/random_uniform/mul"
  input: "e_0_upconv/kernel/Initializer/random_uniform/min"
  attr {
    key: "T"
    value {
      type: DT_FLOAT
    }
  }
  attr {
    key: "_class"
    value {
      list {
        s: "loc:@e_0_upconv/kernel"
      }
    }
  }
  attr {
    key: "_output_shapes"
    value {
      list {
        shape {
          dim {
            size: 2
          }
          dim {
            size: 2
          }
          dim {
            size: 128
          }
          dim {
            size: 256
          }
        }
      }
    }
  }
}
node {
  name: "e_0_upconv/kernel"
  op: "VariableV2"
  attr {
    key: "_class"
    value {
      list {
        s: "loc:@e_0_upconv/kernel"
      }
    }
  }
  attr {
    key: "_output_shapes"
    value {
      list {
        shape {
          dim {
            size: 2
          }
          dim {
            size: 2
          }
          dim {
            size: 128
          }
          dim {
            size: 256
          }
        }
      }
    }
  }
  attr {
    key: "container"
    value {
      s: ""
    }
  }
  attr {
    key: "dtype"
    value {
      type: DT_FLOAT
    }
  }
  attr {
    key: "shape"
    value {
      shape {
        dim {
          size: 2
        }
        dim {
          size: 2
        }
        dim {
          size: 128
        }
        dim {
          size: 256
        }
      }
    }
  }
  attr {
    key: "shared_name"
    value {
      s: ""
    }
  }
}
node {
  name: "e_0_upconv/kernel/Assign"
  op: "Assign"
  input: "e_0_upconv/kernel"
  input: "e_0_upconv/kernel/Initializer/random_uniform"
  attr {
    key: "T"
    value {
      type: DT_FLOAT
    }
  }
  attr {
    key: "_class"
    value {
      list {
        s: "loc:@e_0_upconv/kernel"
      }
    }
  }
  attr {
    key: "_output_shapes"
    value {
      list {
        shape {
          dim {
            size: 2
          }
          dim {
            size: 2
          }
          dim {
            size: 128
          }
          dim {
            size: 256
          }
        }
      }
    }
  }
  attr {
    key: "use_locking"
    value {
      b: true
    }
  }
  attr {
    key: "validate_shape"
    value {
      b: true
    }
  }
}
node {
  name: "e_0_upconv/kernel/read"
  op: "Identity"
  input: "e_0_upconv/kernel"
  attr {
    key: "T"
    value {
      type: DT_FLOAT
    }
  }
  attr {
    key: "_class"
    value {
      list {
        s: "loc:@e_0_upconv/kernel"
      }
    }
  }
  attr {
    key: "_output_shapes"
    value {
      list {
        shape {
          dim {
            size: 2
          }
          dim {
            size: 2
          }
          dim {
            size: 128
          }
          dim {
            size: 256
          }
        }
      }
    }
  }
}
node {
  name: "e_0_upconv/bias/Initializer/zeros"
  op: "Const"
  attr {
    key: "_class"
    value {
      list {
        s: "loc:@e_0_upconv/bias"
      }
    }
  }
  attr {
    key: "_output_shapes"
    value {
      list {
        shape {
          dim {
            size: 128
          }
        }
      }
    }
  }
  attr {
    key: "dtype"
    value {
      type: DT_FLOAT
    }
  }
  attr {
    key: "value"
    value {
      tensor {
        dtype: DT_FLOAT
        tensor_shape {
          dim {
            size: 128
          }
        }
        float_val: 0.0
      }
    }
  }
}
node {
  name: "e_0_upconv/bias"
  op: "VariableV2"
  attr {
    key: "_class"
    value {
      list {
        s: "loc:@e_0_upconv/bias"
      }
    }
  }
  attr {
    key: "_output_shapes"
    value {
      list {
        shape {
          dim {
            size: 128
          }
        }
      }
    }
  }
  attr {
    key: "container"
    value {
      s: ""
    }
  }
  attr {
    key: "dtype"
    value {
      type: DT_FLOAT
    }
  }
  attr {
    key: "shape"
    value {
      shape {
        dim {
          size: 128
        }
      }
    }
  }
  attr {
    key: "shared_name"
    value {
      s: ""
    }
  }
}
node {
  name: "e_0_upconv/bias/Assign"
  op: "Assign"
  input: "e_0_upconv/bias"
  input: "e_0_upconv/bias/Initializer/zeros"
  attr {
    key: "T"
    value {
      type: DT_FLOAT
    }
  }
  attr {
    key: "_class"
    value {
      list {
        s: "loc:@e_0_upconv/bias"
      }
    }
  }
  attr {
    key: "_output_shapes"
    value {
      list {
        shape {
          dim {
            size: 128
          }
        }
      }
    }
  }
  attr {
    key: "use_locking"
    value {
      b: true
    }
  }
  attr {
    key: "validate_shape"
    value {
      b: true
    }
  }
}
node {
  name: "e_0_upconv/bias/read"
  op: "Identity"
  input: "e_0_upconv/bias"
  attr {
    key: "T"
    value {
      type: DT_FLOAT
    }
  }
  attr {
    key: "_class"
    value {
      list {
        s: "loc:@e_0_upconv/bias"
      }
    }
  }
  attr {
    key: "_output_shapes"
    value {
      list {
        shape {
          dim {
            size: 128
          }
        }
      }
    }
  }
}
node {
  name: "e_0_upconv/Shape"
  op: "Shape"
  input: "m_2_conv/Relu"
  attr {
    key: "T"
    value {
      type: DT_FLOAT
    }
  }
  attr {
    key: "_output_shapes"
    value {
      list {
        shape {
          dim {
            size: 4
          }
        }
      }
    }
  }
  attr {
    key: "out_type"
    value {
      type: DT_INT32
    }
  }
}
node {
  name: "e_0_upconv/strided_slice/stack"
  op: "Const"
  attr {
    key: "_output_shapes"
    value {
      list {
        shape {
          dim {
            size: 1
          }
        }
      }
    }
  }
  attr {
    key: "dtype"
    value {
      type: DT_INT32
    }
  }
  attr {
    key: "value"
    value {
      tensor {
        dtype: DT_INT32
        tensor_shape {
          dim {
            size: 1
          }
        }
        int_val: 0
      }
    }
  }
}
node {
  name: "e_0_upconv/strided_slice/stack_1"
  op: "Const"
  attr {
    key: "_output_shapes"
    value {
      list {
        shape {
          dim {
            size: 1
          }
        }
      }
    }
  }
  attr {
    key: "dtype"
    value {
      type: DT_INT32
    }
  }
  attr {
    key: "value"
    value {
      tensor {
        dtype: DT_INT32
        tensor_shape {
          dim {
            size: 1
          }
        }
        int_val: 1
      }
    }
  }
}
node {
  name: "e_0_upconv/strided_slice/stack_2"
  op: "Const"
  attr {
    key: "_output_shapes"
    value {
      list {
        shape {
          dim {
            size: 1
          }
        }
      }
    }
  }
  attr {
    key: "dtype"
    value {
      type: DT_INT32
    }
  }
  attr {
    key: "value"
    value {
      tensor {
        dtype: DT_INT32
        tensor_shape {
          dim {
            size: 1
          }
        }
        int_val: 1
      }
    }
  }
}
node {
  name: "e_0_upconv/strided_slice"
  op: "StridedSlice"
  input: "e_0_upconv/Shape"
  input: "e_0_upconv/strided_slice/stack"
  input: "e_0_upconv/strided_slice/stack_1"
  input: "e_0_upconv/strided_slice/stack_2"
  attr {
    key: "Index"
    value {
      type: DT_INT32
    }
  }
  attr {
    key: "T"
    value {
      type: DT_INT32
    }
  }
  attr {
    key: "_output_shapes"
    value {
      list {
        shape {
        }
      }
    }
  }
  attr {
    key: "begin_mask"
    value {
      i: 0
    }
  }
  attr {
    key: "ellipsis_mask"
    value {
      i: 0
    }
  }
  attr {
    key: "end_mask"
    value {
      i: 0
    }
  }
  attr {
    key: "new_axis_mask"
    value {
      i: 0
    }
  }
  attr {
    key: "shrink_axis_mask"
    value {
      i: 1
    }
  }
}
node {
  name: "e_0_upconv/strided_slice_1/stack"
  op: "Const"
  attr {
    key: "_output_shapes"
    value {
      list {
        shape {
          dim {
            size: 1
          }
        }
      }
    }
  }
  attr {
    key: "dtype"
    value {
      type: DT_INT32
    }
  }
  attr {
    key: "value"
    value {
      tensor {
        dtype: DT_INT32
        tensor_shape {
          dim {
            size: 1
          }
        }
        int_val: 1
      }
    }
  }
}
node {
  name: "e_0_upconv/strided_slice_1/stack_1"
  op: "Const"
  attr {
    key: "_output_shapes"
    value {
      list {
        shape {
          dim {
            size: 1
          }
        }
      }
    }
  }
  attr {
    key: "dtype"
    value {
      type: DT_INT32
    }
  }
  attr {
    key: "value"
    value {
      tensor {
        dtype: DT_INT32
        tensor_shape {
          dim {
            size: 1
          }
        }
        int_val: 2
      }
    }
  }
}
node {
  name: "e_0_upconv/strided_slice_1/stack_2"
  op: "Const"
  attr {
    key: "_output_shapes"
    value {
      list {
        shape {
          dim {
            size: 1
          }
        }
      }
    }
  }
  attr {
    key: "dtype"
    value {
      type: DT_INT32
    }
  }
  attr {
    key: "value"
    value {
      tensor {
        dtype: DT_INT32
        tensor_shape {
          dim {
            size: 1
          }
        }
        int_val: 1
      }
    }
  }
}
node {
  name: "e_0_upconv/strided_slice_1"
  op: "StridedSlice"
  input: "e_0_upconv/Shape"
  input: "e_0_upconv/strided_slice_1/stack"
  input: "e_0_upconv/strided_slice_1/stack_1"
  input: "e_0_upconv/strided_slice_1/stack_2"
  attr {
    key: "Index"
    value {
      type: DT_INT32
    }
  }
  attr {
    key: "T"
    value {
      type: DT_INT32
    }
  }
  attr {
    key: "_output_shapes"
    value {
      list {
        shape {
        }
      }
    }
  }
  attr {
    key: "begin_mask"
    value {
      i: 0
    }
  }
  attr {
    key: "ellipsis_mask"
    value {
      i: 0
    }
  }
  attr {
    key: "end_mask"
    value {
      i: 0
    }
  }
  attr {
    key: "new_axis_mask"
    value {
      i: 0
    }
  }
  attr {
    key: "shrink_axis_mask"
    value {
      i: 1
    }
  }
}
node {
  name: "e_0_upconv/strided_slice_2/stack"
  op: "Const"
  attr {
    key: "_output_shapes"
    value {
      list {
        shape {
          dim {
            size: 1
          }
        }
      }
    }
  }
  attr {
    key: "dtype"
    value {
      type: DT_INT32
    }
  }
  attr {
    key: "value"
    value {
      tensor {
        dtype: DT_INT32
        tensor_shape {
          dim {
            size: 1
          }
        }
        int_val: 2
      }
    }
  }
}
node {
  name: "e_0_upconv/strided_slice_2/stack_1"
  op: "Const"
  attr {
    key: "_output_shapes"
    value {
      list {
        shape {
          dim {
            size: 1
          }
        }
      }
    }
  }
  attr {
    key: "dtype"
    value {
      type: DT_INT32
    }
  }
  attr {
    key: "value"
    value {
      tensor {
        dtype: DT_INT32
        tensor_shape {
          dim {
            size: 1
          }
        }
        int_val: 3
      }
    }
  }
}
node {
  name: "e_0_upconv/strided_slice_2/stack_2"
  op: "Const"
  attr {
    key: "_output_shapes"
    value {
      list {
        shape {
          dim {
            size: 1
          }
        }
      }
    }
  }
  attr {
    key: "dtype"
    value {
      type: DT_INT32
    }
  }
  attr {
    key: "value"
    value {
      tensor {
        dtype: DT_INT32
        tensor_shape {
          dim {
            size: 1
          }
        }
        int_val: 1
      }
    }
  }
}
node {
  name: "e_0_upconv/strided_slice_2"
  op: "StridedSlice"
  input: "e_0_upconv/Shape"
  input: "e_0_upconv/strided_slice_2/stack"
  input: "e_0_upconv/strided_slice_2/stack_1"
  input: "e_0_upconv/strided_slice_2/stack_2"
  attr {
    key: "Index"
    value {
      type: DT_INT32
    }
  }
  attr {
    key: "T"
    value {
      type: DT_INT32
    }
  }
  attr {
    key: "_output_shapes"
    value {
      list {
        shape {
        }
      }
    }
  }
  attr {
    key: "begin_mask"
    value {
      i: 0
    }
  }
  attr {
    key: "ellipsis_mask"
    value {
      i: 0
    }
  }
  attr {
    key: "end_mask"
    value {
      i: 0
    }
  }
  attr {
    key: "new_axis_mask"
    value {
      i: 0
    }
  }
  attr {
    key: "shrink_axis_mask"
    value {
      i: 1
    }
  }
}
node {
  name: "e_0_upconv/mul/y"
  op: "Const"
  attr {
    key: "_output_shapes"
    value {
      list {
        shape {
        }
      }
    }
  }
  attr {
    key: "dtype"
    value {
      type: DT_INT32
    }
  }
  attr {
    key: "value"
    value {
      tensor {
        dtype: DT_INT32
        tensor_shape {
        }
        int_val: 2
      }
    }
  }
}
node {
  name: "e_0_upconv/mul"
  op: "Mul"
  input: "e_0_upconv/strided_slice_1"
  input: "e_0_upconv/mul/y"
  attr {
    key: "T"
    value {
      type: DT_INT32
    }
  }
  attr {
    key: "_output_shapes"
    value {
      list {
        shape {
        }
      }
    }
  }
}
node {
  name: "e_0_upconv/add/y"
  op: "Const"
  attr {
    key: "_output_shapes"
    value {
      list {
        shape {
        }
      }
    }
  }
  attr {
    key: "dtype"
    value {
      type: DT_INT32
    }
  }
  attr {
    key: "value"
    value {
      tensor {
        dtype: DT_INT32
        tensor_shape {
        }
        int_val: 0
      }
    }
  }
}
node {
  name: "e_0_upconv/add"
  op: "Add"
  input: "e_0_upconv/mul"
  input: "e_0_upconv/add/y"
  attr {
    key: "T"
    value {
      type: DT_INT32
    }
  }
  attr {
    key: "_output_shapes"
    value {
      list {
        shape {
        }
      }
    }
  }
}
node {
  name: "e_0_upconv/mul_1/y"
  op: "Const"
  attr {
    key: "_output_shapes"
    value {
      list {
        shape {
        }
      }
    }
  }
  attr {
    key: "dtype"
    value {
      type: DT_INT32
    }
  }
  attr {
    key: "value"
    value {
      tensor {
        dtype: DT_INT32
        tensor_shape {
        }
        int_val: 2
      }
    }
  }
}
node {
  name: "e_0_upconv/mul_1"
  op: "Mul"
  input: "e_0_upconv/strided_slice_2"
  input: "e_0_upconv/mul_1/y"
  attr {
    key: "T"
    value {
      type: DT_INT32
    }
  }
  attr {
    key: "_output_shapes"
    value {
      list {
        shape {
        }
      }
    }
  }
}
node {
  name: "e_0_upconv/add_1/y"
  op: "Const"
  attr {
    key: "_output_shapes"
    value {
      list {
        shape {
        }
      }
    }
  }
  attr {
    key: "dtype"
    value {
      type: DT_INT32
    }
  }
  attr {
    key: "value"
    value {
      tensor {
        dtype: DT_INT32
        tensor_shape {
        }
        int_val: 0
      }
    }
  }
}
node {
  name: "e_0_upconv/add_1"
  op: "Add"
  input: "e_0_upconv/mul_1"
  input: "e_0_upconv/add_1/y"
  attr {
    key: "T"
    value {
      type: DT_INT32
    }
  }
  attr {
    key: "_output_shapes"
    value {
      list {
        shape {
        }
      }
    }
  }
}
node {
  name: "e_0_upconv/stack/3"
  op: "Const"
  attr {
    key: "_output_shapes"
    value {
      list {
        shape {
        }
      }
    }
  }
  attr {
    key: "dtype"
    value {
      type: DT_INT32
    }
  }
  attr {
    key: "value"
    value {
      tensor {
        dtype: DT_INT32
        tensor_shape {
        }
        int_val: 128
      }
    }
  }
}
node {
  name: "e_0_upconv/stack"
  op: "Pack"
  input: "e_0_upconv/strided_slice"
  input: "e_0_upconv/add"
  input: "e_0_upconv/add_1"
  input: "e_0_upconv/stack/3"
  attr {
    key: "N"
    value {
      i: 4
    }
  }
  attr {
    key: "T"
    value {
      type: DT_INT32
    }
  }
  attr {
    key: "_output_shapes"
    value {
      list {
        shape {
          dim {
            size: 4
          }
        }
      }
    }
  }
  attr {
    key: "axis"
    value {
      i: 0
    }
  }
}
node {
  name: "e_0_upconv/strided_slice_3/stack"
  op: "Const"
  attr {
    key: "_output_shapes"
    value {
      list {
        shape {
          dim {
            size: 1
          }
        }
      }
    }
  }
  attr {
    key: "dtype"
    value {
      type: DT_INT32
    }
  }
  attr {
    key: "value"
    value {
      tensor {
        dtype: DT_INT32
        tensor_shape {
          dim {
            size: 1
          }
        }
        int_val: 0
      }
    }
  }
}
node {
  name: "e_0_upconv/strided_slice_3/stack_1"
  op: "Const"
  attr {
    key: "_output_shapes"
    value {
      list {
        shape {
          dim {
            size: 1
          }
        }
      }
    }
  }
  attr {
    key: "dtype"
    value {
      type: DT_INT32
    }
  }
  attr {
    key: "value"
    value {
      tensor {
        dtype: DT_INT32
        tensor_shape {
          dim {
            size: 1
          }
        }
        int_val: 1
      }
    }
  }
}
node {
  name: "e_0_upconv/strided_slice_3/stack_2"
  op: "Const"
  attr {
    key: "_output_shapes"
    value {
      list {
        shape {
          dim {
            size: 1
          }
        }
      }
    }
  }
  attr {
    key: "dtype"
    value {
      type: DT_INT32
    }
  }
  attr {
    key: "value"
    value {
      tensor {
        dtype: DT_INT32
        tensor_shape {
          dim {
            size: 1
          }
        }
        int_val: 1
      }
    }
  }
}
node {
  name: "e_0_upconv/strided_slice_3"
  op: "StridedSlice"
  input: "e_0_upconv/stack"
  input: "e_0_upconv/strided_slice_3/stack"
  input: "e_0_upconv/strided_slice_3/stack_1"
  input: "e_0_upconv/strided_slice_3/stack_2"
  attr {
    key: "Index"
    value {
      type: DT_INT32
    }
  }
  attr {
    key: "T"
    value {
      type: DT_INT32
    }
  }
  attr {
    key: "_output_shapes"
    value {
      list {
        shape {
        }
      }
    }
  }
  attr {
    key: "begin_mask"
    value {
      i: 0
    }
  }
  attr {
    key: "ellipsis_mask"
    value {
      i: 0
    }
  }
  attr {
    key: "end_mask"
    value {
      i: 0
    }
  }
  attr {
    key: "new_axis_mask"
    value {
      i: 0
    }
  }
  attr {
    key: "shrink_axis_mask"
    value {
      i: 1
    }
  }
}
node {
  name: "e_0_upconv/conv2d_transpose"
  op: "Conv2DBackpropInput"
  input: "e_0_upconv/stack"
  input: "e_0_upconv/kernel/read"
  input: "m_2_conv/Relu"
  attr {
    key: "T"
    value {
      type: DT_FLOAT
    }
  }
  attr {
    key: "_output_shapes"
    value {
      list {
        shape {
          dim {
            size: -1
          }
          dim {
            size: 64
          }
          dim {
            size: 64
          }
          dim {
            size: 128
          }
        }
      }
    }
  }
  attr {
    key: "data_format"
    value {
      s: "NHWC"
    }
  }
  attr {
    key: "dilations"
    value {
      list {
        i: 1
        i: 1
        i: 1
        i: 1
      }
    }
  }
  attr {
    key: "padding"
    value {
      s: "VALID"
    }
  }
  attr {
    key: "strides"
    value {
      list {
        i: 1
        i: 2
        i: 2
        i: 1
      }
    }
  }
  attr {
    key: "use_cudnn_on_gpu"
    value {
      b: true
    }
  }
}
node {
  name: "e_0_upconv/BiasAdd"
  op: "BiasAdd"
  input: "e_0_upconv/conv2d_transpose"
  input: "e_0_upconv/bias/read"
  attr {
    key: "T"
    value {
      type: DT_FLOAT
    }
  }
  attr {
    key: "_output_shapes"
    value {
      list {
        shape {
          dim {
            size: -1
          }
          dim {
            size: 64
          }
          dim {
            size: 64
          }
          dim {
            size: 128
          }
        }
      }
    }
  }
  attr {
    key: "data_format"
    value {
      s: "NHWC"
    }
  }
}
node {
  name: "concat/axis"
  op: "Const"
  attr {
    key: "_output_shapes"
    value {
      list {
        shape {
        }
      }
    }
  }
  attr {
    key: "dtype"
    value {
      type: DT_INT32
    }
  }
  attr {
    key: "value"
    value {
      tensor {
        dtype: DT_INT32
        tensor_shape {
        }
        int_val: -1
      }
    }
  }
}
node {
  name: "concat"
  op: "ConcatV2"
  input: "c_2_2_conv/Relu"
  input: "e_0_upconv/BiasAdd"
  input: "concat/axis"
  attr {
    key: "N"
    value {
      i: 2
    }
  }
  attr {
    key: "T"
    value {
      type: DT_FLOAT
    }
  }
  attr {
    key: "Tidx"
    value {
      type: DT_INT32
    }
  }
  attr {
    key: "_output_shapes"
    value {
      list {
        shape {
          dim {
            size: -1
          }
          dim {
            size: 64
          }
          dim {
            size: 64
          }
          dim {
            size: 256
          }
        }
      }
    }
  }
}
node {
  name: "e_0_1_conv/kernel/Initializer/random_uniform/shape"
  op: "Const"
  attr {
    key: "_class"
    value {
      list {
        s: "loc:@e_0_1_conv/kernel"
      }
    }
  }
  attr {
    key: "_output_shapes"
    value {
      list {
        shape {
          dim {
            size: 4
          }
        }
      }
    }
  }
  attr {
    key: "dtype"
    value {
      type: DT_INT32
    }
  }
  attr {
    key: "value"
    value {
      tensor {
        dtype: DT_INT32
        tensor_shape {
          dim {
            size: 4
          }
        }
        tensor_content: "\003\000\000\000\003\000\000\000\000\001\000\000\200\000\000\000"
      }
    }
  }
}
node {
  name: "e_0_1_conv/kernel/Initializer/random_uniform/min"
  op: "Const"
  attr {
    key: "_class"
    value {
      list {
        s: "loc:@e_0_1_conv/kernel"
      }
    }
  }
  attr {
    key: "_output_shapes"
    value {
      list {
        shape {
        }
      }
    }
  }
  attr {
    key: "dtype"
    value {
      type: DT_FLOAT
    }
  }
  attr {
    key: "value"
    value {
      tensor {
        dtype: DT_FLOAT
        tensor_shape {
        }
        float_val: -0.0416666679084301
      }
    }
  }
}
node {
  name: "e_0_1_conv/kernel/Initializer/random_uniform/max"
  op: "Const"
  attr {
    key: "_class"
    value {
      list {
        s: "loc:@e_0_1_conv/kernel"
      }
    }
  }
  attr {
    key: "_output_shapes"
    value {
      list {
        shape {
        }
      }
    }
  }
  attr {
    key: "dtype"
    value {
      type: DT_FLOAT
    }
  }
  attr {
    key: "value"
    value {
      tensor {
        dtype: DT_FLOAT
        tensor_shape {
        }
        float_val: 0.0416666679084301
      }
    }
  }
}
node {
  name: "e_0_1_conv/kernel/Initializer/random_uniform/RandomUniform"
  op: "RandomUniform"
  input: "e_0_1_conv/kernel/Initializer/random_uniform/shape"
  attr {
    key: "T"
    value {
      type: DT_INT32
    }
  }
  attr {
    key: "_class"
    value {
      list {
        s: "loc:@e_0_1_conv/kernel"
      }
    }
  }
  attr {
    key: "_output_shapes"
    value {
      list {
        shape {
          dim {
            size: 3
          }
          dim {
            size: 3
          }
          dim {
            size: 256
          }
          dim {
            size: 128
          }
        }
      }
    }
  }
  attr {
    key: "dtype"
    value {
      type: DT_FLOAT
    }
  }
  attr {
    key: "seed"
    value {
      i: 0
    }
  }
  attr {
    key: "seed2"
    value {
      i: 0
    }
  }
}
node {
  name: "e_0_1_conv/kernel/Initializer/random_uniform/sub"
  op: "Sub"
  input: "e_0_1_conv/kernel/Initializer/random_uniform/max"
  input: "e_0_1_conv/kernel/Initializer/random_uniform/min"
  attr {
    key: "T"
    value {
      type: DT_FLOAT
    }
  }
  attr {
    key: "_class"
    value {
      list {
        s: "loc:@e_0_1_conv/kernel"
      }
    }
  }
  attr {
    key: "_output_shapes"
    value {
      list {
        shape {
        }
      }
    }
  }
}
node {
  name: "e_0_1_conv/kernel/Initializer/random_uniform/mul"
  op: "Mul"
  input: "e_0_1_conv/kernel/Initializer/random_uniform/RandomUniform"
  input: "e_0_1_conv/kernel/Initializer/random_uniform/sub"
  attr {
    key: "T"
    value {
      type: DT_FLOAT
    }
  }
  attr {
    key: "_class"
    value {
      list {
        s: "loc:@e_0_1_conv/kernel"
      }
    }
  }
  attr {
    key: "_output_shapes"
    value {
      list {
        shape {
          dim {
            size: 3
          }
          dim {
            size: 3
          }
          dim {
            size: 256
          }
          dim {
            size: 128
          }
        }
      }
    }
  }
}
node {
  name: "e_0_1_conv/kernel/Initializer/random_uniform"
  op: "Add"
  input: "e_0_1_conv/kernel/Initializer/random_uniform/mul"
  input: "e_0_1_conv/kernel/Initializer/random_uniform/min"
  attr {
    key: "T"
    value {
      type: DT_FLOAT
    }
  }
  attr {
    key: "_class"
    value {
      list {
        s: "loc:@e_0_1_conv/kernel"
      }
    }
  }
  attr {
    key: "_output_shapes"
    value {
      list {
        shape {
          dim {
            size: 3
          }
          dim {
            size: 3
          }
          dim {
            size: 256
          }
          dim {
            size: 128
          }
        }
      }
    }
  }
}
node {
  name: "e_0_1_conv/kernel"
  op: "VariableV2"
  attr {
    key: "_class"
    value {
      list {
        s: "loc:@e_0_1_conv/kernel"
      }
    }
  }
  attr {
    key: "_output_shapes"
    value {
      list {
        shape {
          dim {
            size: 3
          }
          dim {
            size: 3
          }
          dim {
            size: 256
          }
          dim {
            size: 128
          }
        }
      }
    }
  }
  attr {
    key: "container"
    value {
      s: ""
    }
  }
  attr {
    key: "dtype"
    value {
      type: DT_FLOAT
    }
  }
  attr {
    key: "shape"
    value {
      shape {
        dim {
          size: 3
        }
        dim {
          size: 3
        }
        dim {
          size: 256
        }
        dim {
          size: 128
        }
      }
    }
  }
  attr {
    key: "shared_name"
    value {
      s: ""
    }
  }
}
node {
  name: "e_0_1_conv/kernel/Assign"
  op: "Assign"
  input: "e_0_1_conv/kernel"
  input: "e_0_1_conv/kernel/Initializer/random_uniform"
  attr {
    key: "T"
    value {
      type: DT_FLOAT
    }
  }
  attr {
    key: "_class"
    value {
      list {
        s: "loc:@e_0_1_conv/kernel"
      }
    }
  }
  attr {
    key: "_output_shapes"
    value {
      list {
        shape {
          dim {
            size: 3
          }
          dim {
            size: 3
          }
          dim {
            size: 256
          }
          dim {
            size: 128
          }
        }
      }
    }
  }
  attr {
    key: "use_locking"
    value {
      b: true
    }
  }
  attr {
    key: "validate_shape"
    value {
      b: true
    }
  }
}
node {
  name: "e_0_1_conv/kernel/read"
  op: "Identity"
  input: "e_0_1_conv/kernel"
  attr {
    key: "T"
    value {
      type: DT_FLOAT
    }
  }
  attr {
    key: "_class"
    value {
      list {
        s: "loc:@e_0_1_conv/kernel"
      }
    }
  }
  attr {
    key: "_output_shapes"
    value {
      list {
        shape {
          dim {
            size: 3
          }
          dim {
            size: 3
          }
          dim {
            size: 256
          }
          dim {
            size: 128
          }
        }
      }
    }
  }
}
node {
  name: "e_0_1_conv/bias/Initializer/zeros"
  op: "Const"
  attr {
    key: "_class"
    value {
      list {
        s: "loc:@e_0_1_conv/bias"
      }
    }
  }
  attr {
    key: "_output_shapes"
    value {
      list {
        shape {
          dim {
            size: 128
          }
        }
      }
    }
  }
  attr {
    key: "dtype"
    value {
      type: DT_FLOAT
    }
  }
  attr {
    key: "value"
    value {
      tensor {
        dtype: DT_FLOAT
        tensor_shape {
          dim {
            size: 128
          }
        }
        float_val: 0.0
      }
    }
  }
}
node {
  name: "e_0_1_conv/bias"
  op: "VariableV2"
  attr {
    key: "_class"
    value {
      list {
        s: "loc:@e_0_1_conv/bias"
      }
    }
  }
  attr {
    key: "_output_shapes"
    value {
      list {
        shape {
          dim {
            size: 128
          }
        }
      }
    }
  }
  attr {
    key: "container"
    value {
      s: ""
    }
  }
  attr {
    key: "dtype"
    value {
      type: DT_FLOAT
    }
  }
  attr {
    key: "shape"
    value {
      shape {
        dim {
          size: 128
        }
      }
    }
  }
  attr {
    key: "shared_name"
    value {
      s: ""
    }
  }
}
node {
  name: "e_0_1_conv/bias/Assign"
  op: "Assign"
  input: "e_0_1_conv/bias"
  input: "e_0_1_conv/bias/Initializer/zeros"
  attr {
    key: "T"
    value {
      type: DT_FLOAT
    }
  }
  attr {
    key: "_class"
    value {
      list {
        s: "loc:@e_0_1_conv/bias"
      }
    }
  }
  attr {
    key: "_output_shapes"
    value {
      list {
        shape {
          dim {
            size: 128
          }
        }
      }
    }
  }
  attr {
    key: "use_locking"
    value {
      b: true
    }
  }
  attr {
    key: "validate_shape"
    value {
      b: true
    }
  }
}
node {
  name: "e_0_1_conv/bias/read"
  op: "Identity"
  input: "e_0_1_conv/bias"
  attr {
    key: "T"
    value {
      type: DT_FLOAT
    }
  }
  attr {
    key: "_class"
    value {
      list {
        s: "loc:@e_0_1_conv/bias"
      }
    }
  }
  attr {
    key: "_output_shapes"
    value {
      list {
        shape {
          dim {
            size: 128
          }
        }
      }
    }
  }
}
node {
  name: "e_0_1_conv/dilation_rate"
  op: "Const"
  attr {
    key: "_output_shapes"
    value {
      list {
        shape {
          dim {
            size: 2
          }
        }
      }
    }
  }
  attr {
    key: "dtype"
    value {
      type: DT_INT32
    }
  }
  attr {
    key: "value"
    value {
      tensor {
        dtype: DT_INT32
        tensor_shape {
          dim {
            size: 2
          }
        }
        tensor_content: "\001\000\000\000\001\000\000\000"
      }
    }
  }
}
node {
  name: "e_0_1_conv/Conv2D"
  op: "Conv2D"
  input: "concat"
  input: "e_0_1_conv/kernel/read"
  attr {
    key: "T"
    value {
      type: DT_FLOAT
    }
  }
  attr {
    key: "_output_shapes"
    value {
      list {
        shape {
          dim {
            size: -1
          }
          dim {
            size: 64
          }
          dim {
            size: 64
          }
          dim {
            size: 128
          }
        }
      }
    }
  }
  attr {
    key: "data_format"
    value {
      s: "NHWC"
    }
  }
  attr {
    key: "dilations"
    value {
      list {
        i: 1
        i: 1
        i: 1
        i: 1
      }
    }
  }
  attr {
    key: "padding"
    value {
      s: "SAME"
    }
  }
  attr {
    key: "strides"
    value {
      list {
        i: 1
        i: 1
        i: 1
        i: 1
      }
    }
  }
  attr {
    key: "use_cudnn_on_gpu"
    value {
      b: true
    }
  }
}
node {
  name: "e_0_1_conv/BiasAdd"
  op: "BiasAdd"
  input: "e_0_1_conv/Conv2D"
  input: "e_0_1_conv/bias/read"
  attr {
    key: "T"
    value {
      type: DT_FLOAT
    }
  }
  attr {
    key: "_output_shapes"
    value {
      list {
        shape {
          dim {
            size: -1
          }
          dim {
            size: 64
          }
          dim {
            size: 64
          }
          dim {
            size: 128
          }
        }
      }
    }
  }
  attr {
    key: "data_format"
    value {
      s: "NHWC"
    }
  }
}
node {
  name: "e_0_1_conv/Relu"
  op: "Relu"
  input: "e_0_1_conv/BiasAdd"
  attr {
    key: "T"
    value {
      type: DT_FLOAT
    }
  }
  attr {
    key: "_output_shapes"
    value {
      list {
        shape {
          dim {
            size: -1
          }
          dim {
            size: 64
          }
          dim {
            size: 64
          }
          dim {
            size: 128
          }
        }
      }
    }
  }
}
node {
  name: "e_0_2_conv/kernel/Initializer/random_uniform/shape"
  op: "Const"
  attr {
    key: "_class"
    value {
      list {
        s: "loc:@e_0_2_conv/kernel"
      }
    }
  }
  attr {
    key: "_output_shapes"
    value {
      list {
        shape {
          dim {
            size: 4
          }
        }
      }
    }
  }
  attr {
    key: "dtype"
    value {
      type: DT_INT32
    }
  }
  attr {
    key: "value"
    value {
      tensor {
        dtype: DT_INT32
        tensor_shape {
          dim {
            size: 4
          }
        }
        tensor_content: "\003\000\000\000\003\000\000\000\200\000\000\000\200\000\000\000"
      }
    }
  }
}
node {
  name: "e_0_2_conv/kernel/Initializer/random_uniform/min"
  op: "Const"
…
        key: "T"
        value {
          type: DT_INT32
        }
      }
    }
    node_def {
      name: "rot90/Equal_2/y"
      op: "Const"
      device: "/device:CPU:0"
      attr {
        key: "dtype"
        value {
          type: DT_INT32
        }
      }
      attr {
        key: "value"
        value {
          tensor {
            dtype: DT_INT32
            tensor_shape {
            }
            int_val: 3
          }
        }
      }
    }
    node_def {
      name: "rot90/Equal_2"
      op: "Equal"
      input: "rot90/FloorMod:z:0"
      input: "rot90/Equal_2/y:output:0"
      device: "/device:CPU:0"
      attr {
        key: "T"
        value {
          type: DT_INT32
        }
      }
    }
    node_def {
      name: "rot90/preds_c"
      op: "Pack"
      input: "rot90/Equal:z:0"
      input: "rot90/Equal_1:z:0"
      input: "rot90/Equal_2:z:0"
      device: "/device:CPU:0"
      attr {
        key: "N"
        value {
          i: 3
        }
      }
      attr {
        key: "T"
        value {
          type: DT_BOOL
        }
      }
      attr {
        key: "axis"
        value {
          i: 0
        }
      }
    }
    node_def {
      name: "rot90/Cast"
      op: "Cast"
      input: "rot90/preds_c:output:0"
      device: "/device:CPU:0"
      attr {
        key: "DstT"
        value {
          type: DT_INT32
        }
      }
      attr {
        key: "SrcT"
        value {
          type: DT_BOOL
        }
      }
      attr {
        key: "Truncate"
        value {
          b: false
        }
      }
    }
    node_def {
      name: "rot90/Const"
      op: "Const"
      device: "/device:CPU:0"
      attr {
        key: "dtype"
        value {
          type: DT_INT32
        }
      }
      attr {
        key: "value"
        value {
          tensor {
            dtype: DT_INT32
            tensor_shape {
              dim {
                size: 1
              }
            }
            int_val: 0
          }
        }
      }
    }
    node_def {
      name: "rot90/num_true_conds"
      op: "Sum"
      input: "rot90/Cast:y:0"
      input: "rot90/Const:output:0"
      device: "/device:CPU:0"
      attr {
        key: "T"
        value {
          type: DT_INT32
        }
      }
      attr {
        key: "Tidx"
        value {
          type: DT_INT32
        }
      }
      attr {
        key: "keep_dims"
        value {
          b: false
        }
      }
    }
    node_def {
      name: "rot90/n_true_conds"
      op: "Const"
      device: "/device:CPU:0"
      attr {
        key: "dtype"
        value {
          type: DT_INT32
        }
      }
      attr {
        key: "value"
        value {
          tensor {
            dtype: DT_INT32
            tensor_shape {
            }
            int_val: 1
          }
        }
      }
    }
    node_def {
      name: "rot90/LessEqual"
      op: "LessEqual"
      input: "rot90/num_true_conds:output:0"
      input: "rot90/n_true_conds:output:0"
      device: "/device:CPU:0"
      attr {
        key: "T"
        value {
          type: DT_INT32
        }
      }
    }
    node_def {
      name: "rot90/Assert/Const"
      op: "Const"
      device: "/device:CPU:0"
      attr {
        key: "dtype"
        value {
          type: DT_STRING
        }
      }
      attr {
        key: "value"
        value {
          tensor {
            dtype: DT_STRING
            tensor_shape {
            }
            string_val: "…"
          }
        }
      }
    }
    node_def {
      name: "rot90/Assert/AssertGuard/Switch"
      op: "Switch"
      input: "rot90/LessEqual:z:0"
      input: "rot90/LessEqual:z:0"
      device: "/device:CPU:0"
      attr {
        key: "T"
        value {
          type: DT_BOOL
        }
      }
    }
    node_def {
      name: "rot90/Assert/AssertGuard/switch_t"
      op: "Identity"
      input: "rot90/Assert/AssertGuard/Switch:output_true:0"
      device: "/device:CPU:0"
      attr {
        key: "T"
        value {
          type: DT_BOOL
        }
      }
    }
    node_def {
      name: "rot90/Assert/AssertGuard/switch_f"
      op: "Identity"
      input: "rot90/Assert/AssertGuard/Switch:output_false:0"
      device: "/device:CPU:0"
      attr {
        key: "T"
        value {
          type: DT_BOOL
        }
      }
    }
    node_def {
      name: "rot90/Assert/AssertGuard/pred_id"
      op: "Identity"
      input: "rot90/LessEqual:z:0"
      device: "/device:CPU:0"
      attr {
        key: "T"
        value {
          type: DT_BOOL
        }
      }
    }
    node_def {
      name: "rot90/Assert/AssertGuard/NoOp"
      op: "NoOp"
      input: "^rot90/Assert/AssertGuard/switch_t"
      device: "/device:CPU:0"
    }
    node_def {
      name: "rot90/Assert/AssertGuard/control_dependency"
      op: "Identity"
      input: "rot90/Assert/AssertGuard/switch_t:output:0"
      input: "^rot90/Assert/AssertGuard/NoOp"
      device: "/device:CPU:0"
      attr {
        key: "T"
        value {
          type: DT_BOOL
        }
      }
      attr {
        key: "_class"
        value {
          list {
            s: "loc:@rot90/Assert/AssertGuard/switch_t"
          }
        }
      }
    }
    node_def {
      name: "rot90/Assert/AssertGuard/Assert/data_0"
      op: "Const"
      input: "^rot90/Assert/AssertGuard/switch_f"
      device: "/device:CPU:0"
      attr {
        key: "dtype"
        value {
          type: DT_STRING
        }
      }
      attr {
        key: "value"
        value {
          tensor {
            dtype: DT_STRING
            tensor_shape {
            }
            string_val: "…"
          }
        }
      }
    }
    node_def {
      name: "rot90/Assert/AssertGuard/Assert"
      op: "Assert"
      input: "rot90/Assert/AssertGuard/Assert/Switch:output_false:0"
      input: "rot90/Assert/AssertGuard/Assert/data_0:output:0"
      input: "rot90/Assert/AssertGuard/Assert/Switch_1:output_false:0"
      device: "/device:CPU:0"
      attr {
        key: "T"
        value {
          list {
            type: DT_STRING
            type: DT_BOOL
          }
        }
      }
      attr {
        key: "summarize"
        value {
          i: 3
        }
      }
    }
    node_def {
      name: "rot90/Assert/AssertGuard/Assert/Switch"
      op: "Switch"
      input: "rot90/LessEqual:z:0"
      input: "rot90/Assert/AssertGuard/pred_id:output:0"
      device: "/device:CPU:0"
      attr {
        key: "T"
        value {
          type: DT_BOOL
        }
      }
      attr {
        key: "_class"
        value {
          list {
            s: "loc:@rot90/LessEqual"
          }
        }
      }
    }
    node_def {
      name: "rot90/Assert/AssertGuard/Assert/Switch_1"
      op: "Switch"
      input: "rot90/preds_c:output:0"
      input: "rot90/Assert/AssertGuard/pred_id:output:0"
      device: "/device:CPU:0"
      attr {
        key: "T"
        value {
          type: DT_BOOL
        }
      }
      attr {
        key: "_class"
        value {
          list {
            s: "loc:@rot90/preds_c"
          }
        }
      }
    }
    node_def {
      name: "rot90/Assert/AssertGuard/control_dependency_1"
      op: "Identity"
      input: "rot90/Assert/AssertGuard/switch_f:output:0"
      input: "^rot90/Assert/AssertGuard/Assert"
      device: "/device:CPU:0"
      attr {
        key: "T"
        value {
          type: DT_BOOL
        }
      }
      attr {
        key: "_class"
        value {
          list {
            s: "loc:@rot90/Assert/AssertGuard/switch_f"
          }
        }
      }
    }
    node_def {
      name: "rot90/Assert/AssertGuard/Merge"
      op: "Merge"
      input: "rot90/Assert/AssertGuard/control_dependency_1:output:0"
      input: "rot90/Assert/AssertGuard/control_dependency:output:0"
      device: "/device:CPU:0"
      attr {
        key: "N"
        value {
          i: 2
        }
      }
      attr {
        key: "T"
        value {
          type: DT_BOOL
        }
      }
    }
    node_def {
      name: "rot90/cond/Switch"
      op: "Switch"
      input: "rot90/Equal:z:0"
      input: "rot90/Equal:z:0"
      input: "^rot90/Assert/AssertGuard/Merge"
      device: "/device:CPU:0"
      attr {
        key: "T"
        value {
          type: DT_BOOL
        }
      }
    }
    node_def {
      name: "rot90/cond/switch_t"
      op: "Identity"
      input: "rot90/cond/Switch:output_true:0"
      device: "/device:CPU:0"
      attr {
        key: "T"
        value {
          type: DT_BOOL
        }
      }
    }
    node_def {
      name: "rot90/cond/switch_f"
      op: "Identity"
      input: "rot90/cond/Switch:output_false:0"
      device: "/device:CPU:0"
      attr {
        key: "T"
        value {
          type: DT_BOOL
        }
      }
    }
    node_def {
      name: "rot90/cond/pred_id"
      op: "Identity"
      input: "rot90/Equal:z:0"
      input: "^rot90/Assert/AssertGuard/Merge"
      device: "/device:CPU:0"
      attr {
        key: "T"
        value {
          type: DT_BOOL
        }
      }
    }
    node_def {
      name: "rot90/cond/ReverseV2/axis"
      op: "Const"
      input: "^rot90/Assert/AssertGuard/Merge"
      input: "^rot90/cond/switch_t"
      device: "/device:CPU:0"
      attr {
        key: "dtype"
        value {
          type: DT_INT32
        }
      }
      attr {
        key: "value"
        value {
          tensor {
            dtype: DT_INT32
            tensor_shape {
              dim {
                size: 1
              }
            }
            int_val: 2
          }
        }
      }
    }
    node_def {
      name: "rot90/cond/ReverseV2"
      op: "ReverseV2"
      input: "rot90/cond/ReverseV2/Switch:output_true:0"
      input: "rot90/cond/ReverseV2/axis:output:0"
      device: "/device:CPU:0"
      attr {
        key: "T"
        value {
          type: DT_FLOAT
        }
      }
      attr {
        key: "Tidx"
        value {
          type: DT_INT32
        }
      }
    }
    node_def {
      name: "rot90/cond/ReverseV2/Switch"
      op: "Switch"
      input: "rot90/control_dependency:output:0"
      input: "rot90/cond/pred_id:output:0"
      device: "/device:CPU:0"
      attr {
        key: "T"
        value {
          type: DT_FLOAT
        }
      }
      attr {
        key: "_class"
        value {
          list {
            s: "loc:@cond/Merge"
          }
        }
      }
    }
    node_def {
      name: "rot90/cond/transpose/perm"
      op: "Const"
      input: "^rot90/Assert/AssertGuard/Merge"
      input: "^rot90/cond/switch_t"
      device: "/device:CPU:0"
      attr {
        key: "dtype"
        value {
          type: DT_INT32
        }
      }
      attr {
        key: "value"
        value {
          tensor {
            dtype: DT_INT32
            tensor_shape {
              dim {
                size: 4
              }
            }
            tensor_content: "\000\000\000\000\002\000\000\000\001\000\000\000\003\000\000\000"
          }
        }
      }
    }
    node_def {
      name: "rot90/cond/transpose"
      op: "Transpose"
      input: "rot90/cond/ReverseV2:output:0"
      input: "rot90/cond/transpose/perm:output:0"
      device: "/device:CPU:0"
      attr {
        key: "T"
        value {
          type: DT_FLOAT
        }
      }
      attr {
        key: "Tperm"
        value {
          type: DT_INT32
        }
      }
    }
    node_def {
      name: "rot90/cond/cond/Switch"
      op: "Switch"
      input: "rot90/cond/cond/Switch/Switch:output_false:0"
      input: "rot90/cond/cond/Switch/Switch:output_false:0"
      input: "^rot90/Assert/AssertGuard/Merge"
      device: "/device:CPU:0"
      attr {
        key: "T"
        value {
          type: DT_BOOL
        }
      }
    }
    node_def {
      name: "rot90/cond/cond/Switch/Switch"
      op: "Switch"
      input: "rot90/Equal_1:z:0"
      input: "rot90/cond/pred_id:output:0"
      device: "/device:CPU:0"
      attr {
        key: "T"
        value {
          type: DT_BOOL
        }
      }
      attr {
        key: "_class"
        value {
          list {
            s: "loc:@rot90/Equal_1"
          }
        }
      }
    }
    node_def {
      name: "rot90/cond/cond/switch_t"
      op: "Identity"
      input: "rot90/cond/cond/Switch:output_true:0"
      device: "/device:CPU:0"
      attr {
        key: "T"
        value {
          type: DT_BOOL
        }
      }
    }
    node_def {
      name: "rot90/cond/cond/switch_f"
      op: "Identity"
      input: "rot90/cond/cond/Switch:output_false:0"
      device: "/device:CPU:0"
      attr {
        key: "T"
        value {
          type: DT_BOOL
        }
      }
    }
    node_def {
      name: "rot90/cond/cond/pred_id"
      op: "Identity"
      input: "rot90/cond/cond/Switch/Switch:output_false:0"
      input: "^rot90/Assert/AssertGuard/Merge"
      device: "/device:CPU:0"
      attr {
        key: "T"
        value {
          type: DT_BOOL
        }
      }
    }
    node_def {
      name: "rot90/cond/cond/ReverseV2/axis"
      op: "Const"
      input: "^rot90/Assert/AssertGuard/Merge"
      input: "^rot90/cond/cond/switch_t"
      device: "/device:CPU:0"
      attr {
        key: "dtype"
        value {
          type: DT_INT32
        }
      }
      attr {
        key: "value"
        value {
          tensor {
            dtype: DT_INT32
            tensor_shape {
              dim {
                size: 2
              }
            }
            tensor_content: "\001\000\000\000\002\000\000\000"
          }
        }
      }
    }
    node_def {
      name: "rot90/cond/cond/ReverseV2"
      op: "ReverseV2"
      input: "rot90/cond/cond/ReverseV2/Switch_1:output_true:0"
      input: "rot90/cond/cond/ReverseV2/axis:output:0"
      device: "/device:CPU:0"
      attr {
        key: "T"
        value {
          type: DT_FLOAT
        }
      }
      attr {
        key: "Tidx"
        value {
          type: DT_INT32
        }
      }
    }
    node_def {
      name: "rot90/cond/cond/ReverseV2/Switch"
      op: "Switch"
      input: "rot90/control_dependency:output:0"
      input: "rot90/cond/pred_id:output:0"
      device: "/device:CPU:0"
      attr {
        key: "T"
        value {
          type: DT_FLOAT
        }
      }
      attr {
        key: "_class"
        value {
          list {
            s: "loc:@cond/Merge"
          }
        }
      }
    }
    node_def {
      name: "rot90/cond/cond/ReverseV2/Switch_1"
      op: "Switch"
      input: "rot90/cond/cond/ReverseV2/Switch:output_false:0"
      input: "rot90/cond/cond/pred_id:output:0"
      device: "/device:CPU:0"
      attr {
        key: "T"
        value {
          type: DT_FLOAT
        }
      }
      attr {
        key: "_class"
        value {
          list {
            s: "loc:@cond/Merge"
          }
        }
      }
    }
    node_def {
      name: "rot90/cond/cond/cond/Switch"
      op: "Switch"
      input: "rot90/cond/cond/cond/Switch/Switch_1:output_false:0"
      input: "rot90/cond/cond/cond/Switch/Switch_1:output_false:0"
      input: "^rot90/Assert/AssertGuard/Merge"
      device: "/device:CPU:0"
      attr {
        key: "T"
        value {
          type: DT_BOOL
        }
      }
    }
    node_def {
      name: "rot90/cond/cond/cond/Switch/Switch"
      op: "Switch"
      input: "rot90/Equal_2:z:0"
      input: "rot90/cond/pred_id:output:0"
      device: "/device:CPU:0"
      attr {
        key: "T"
        value {
          type: DT_BOOL
        }
      }
      attr {
        key: "_class"
        value {
          list {
            s: "loc:@rot90/Equal_2"
          }
        }
      }
    }
    node_def {
      name: "rot90/cond/cond/cond/Switch/Switch_1"
      op: "Switch"
      input: "rot90/cond/cond/cond/Switch/Switch:output_false:0"
      input: "rot90/cond/cond/pred_id:output:0"
      device: "/device:CPU:0"
      attr {
        key: "T"
        value {
          type: DT_BOOL
        }
      }
      attr {
        key: "_class"
        value {
          list {
            s: "loc:@rot90/Equal_2"
          }
        }
      }
    }
    node_def {
      name: "rot90/cond/cond/cond/switch_t"
      op: "Identity"
      input: "rot90/cond/cond/cond/Switch:output_true:0"
      device: "/device:CPU:0"
      attr {
        key: "T"
        value {
          type: DT_BOOL
        }
      }
    }
    node_def {
      name: "rot90/cond/cond/cond/switch_f"
      op: "Identity"
      input: "rot90/cond/cond/cond/Switch:output_false:0"
      device: "/device:CPU:0"
      attr {
        key: "T"
        value {
          type: DT_BOOL
        }
      }
    }
    node_def {
      name: "rot90/cond/cond/cond/pred_id"
      op: "Identity"
      input: "rot90/cond/cond/cond/Switch/Switch_1:output_false:0"
      input: "^rot90/Assert/AssertGuard/Merge"
      device: "/device:CPU:0"
      attr {
        key: "T"
        value {
          type: DT_BOOL
        }
      }
    }
    node_def {
      name: "rot90/cond/cond/cond/transpose/perm"
      op: "Const"
      input: "^rot90/Assert/AssertGuard/Merge"
      input: "^rot90/cond/cond/cond/switch_t"
      device: "/device:CPU:0"
      attr {
        key: "dtype"
        value {
          type: DT_INT32
        }
      }
      attr {
        key: "value"
        value {
          tensor {
            dtype: DT_INT32
            tensor_shape {
              dim {
                size: 4
              }
            }
            tensor_content: "\000\000\000\000\002\000\000\000\001\000\000\000\003\000\000\000"
          }
        }
      }
    }
    node_def {
      name: "rot90/cond/cond/cond/transpose"
      op: "Transpose"
      input: "rot90/cond/cond/cond/transpose/Switch_1:output_true:0"
      input: "rot90/cond/cond/cond/transpose/perm:output:0"
      device: "/device:CPU:0"
      attr {
        key: "T"
        value {
          type: DT_FLOAT
        }
      }
      attr {
        key: "Tperm"
        value {
          type: DT_INT32
        }
      }
    }
    node_def {
      name: "rot90/cond/cond/cond/transpose/Switch"
      op: "Switch"
      input: "rot90/cond/cond/ReverseV2/Switch:output_false:0"
      input: "rot90/cond/cond/pred_id:output:0"
      device: "/device:CPU:0"
      attr {
        key: "T"
        value {
          type: DT_FLOAT
        }
      }
      attr {
        key: "_class"
        value {
          list {
            s: "loc:@cond/Merge"
          }
        }
      }
    }
    node_def {
      name: "rot90/cond/cond/cond/transpose/Switch_1"
      op: "Switch"
      input: "rot90/cond/cond/cond/transpose/Switch:output_false:0"
      input: "rot90/cond/cond/cond/pred_id:output:0"
      device: "/device:CPU:0"
      attr {
        key: "T"
        value {
          type: DT_FLOAT
        }
      }
      attr {
        key: "_class"
        value {
          list {
            s: "loc:@cond/Merge"
          }
        }
      }
    }
    node_def {
      name: "rot90/cond/cond/cond/ReverseV2/axis"
      op: "Const"
      input: "^rot90/Assert/AssertGuard/Merge"
      input: "^rot90/cond/cond/cond/switch_t"
      device: "/device:CPU:0"
      attr {
        key: "dtype"
        value {
          type: DT_INT32
        }
      }
      attr {
        key: "value"
        value {
          tensor {
            dtype: DT_INT32
            tensor_shape {
              dim {
                size: 1
              }
            }
            int_val: 2
          }
        }
      }
    }
    node_def {
      name: "rot90/cond/cond/cond/ReverseV2"
      op: "ReverseV2"
      input: "rot90/cond/cond/cond/transpose:y:0"
      input: "rot90/cond/cond/cond/ReverseV2/axis:output:0"
      device: "/device:CPU:0"
      attr {
        key: "T"
        value {
          type: DT_FLOAT
        }
      }
      attr {
        key: "Tidx"
        value {
          type: DT_INT32
        }
      }
    }
    node_def {
      name: "rot90/cond/cond/cond/Switch_1"
      op: "Switch"
      input: "rot90/cond/cond/cond/transpose/Switch:output_false:0"
      input: "rot90/cond/cond/cond/pred_id:output:0"
      device: "/device:CPU:0"
      attr {
        key: "T"
        value {
          type: DT_FLOAT
        }
      }
      attr {
        key: "_class"
        value {
          list {
            s: "loc:@cond/Merge"
          }
        }
      }
    }
    node_def {
      name: "rot90/cond/cond/cond/Merge"
      op: "Merge"
      input: "rot90/cond/cond/cond/Switch_1:output_false:0"
      input: "rot90/cond/cond/cond/ReverseV2:output:0"
      device: "/device:CPU:0"
      attr {
        key: "N"
        value {
          i: 2
        }
      }
      attr {
        key: "T"
        value {
          type: DT_FLOAT
        }
      }
    }
    node_def {
      name: "rot90/cond/cond/Merge"
      op: "Merge"
      input: "rot90/cond/cond/cond/Merge:output:0"
      input: "rot90/cond/cond/ReverseV2:output:0"
      device: "/device:CPU:0"
      attr {
        key: "N"
        value {
          i: 2
        }
      }
      attr {
        key: "T"
        value {
          type: DT_FLOAT
        }
      }
    }
    node_def {
      name: "rot90/cond/Merge"
      op: "Merge"
      input: "rot90/cond/cond/Merge:output:0"
      input: "rot90/cond/transpose:y:0"
      device: "/device:CPU:0"
      attr {
        key: "N"
        value {
          i: 2
        }
      }
      attr {
        key: "T"
        value {
          type: DT_FLOAT
        }
      }
    }
    node_def {
      name: "rot90_1/Shape"
      op: "Shape"
      input: "cond/Merge_1:output:0"
      device: "/device:CPU:0"
      attr {
        key: "T"
        value {
          type: DT_FLOAT
        }
      }
      attr {
        key: "out_type"
        value {
          type: DT_INT32
        }
      }
    }
    node_def {
      name: "rot90_1/assert_positive/Const"
      op: "Const"
      device: "/device:CPU:0"
      attr {
        key: "dtype"
        value {
          type: DT_INT32
        }
      }
      attr {
        key: "value"
        value {
          tensor {
            dtype: DT_INT32
            tensor_shape {
            }
            int_val: 0
          }
        }
      }
    }
    node_def {
      name: "rot90_1/assert_positive/assert_less/Less"
      op: "Less"
      input: "rot90_1/assert_positive/Const:output:0"
      input: "rot90_1/Shape:output:0"
      device: "/device:CPU:0"
      attr {
        key: "T"
        value {
          type: DT_INT32
        }
      }
    }
    node_def {
      name: "rot90_1/assert_positive/assert_less/Const"
      op: "Const"
      device: "/device:CPU:0"
      attr {
        key: "dtype"
        value {
          type: DT_INT32
        }
      }
      attr {
        key: "value"
        value {
          tensor {
            dtype: DT_INT32
            tensor_shape {
              dim {
                size: 1
              }
            }
            int_val: 0
          }
        }
      }
    }
    node_def {
      name: "rot90_1/assert_positive/assert_less/All"
      op: "All"
      input: "rot90_1/assert_positive/assert_less/Less:z:0"
      input: "rot90_1/assert_positive/assert_less/Const:output:0"
      device: "/device:CPU:0"
      attr {
        key: "Tidx"
        value {
          type: DT_INT32
        }
      }
      attr {
        key: "keep_dims"
        value {
          b: false
        }
      }
    }
    node_def {
      name: "rot90_1/assert_positive/assert_less/Assert/Const"
      op: "Const"
      device: "/device:CPU:0"
      attr {
        key: "dtype"
        value {
          type: DT_STRING
        }
      }
      attr {
        key: "value"
        value {
          tensor {
            dtype: DT_STRING
            tensor_shape {
            }
            string_val: "all dims of \'image.shape\' must be > 0."
          }
        }
      }
    }
    node_def {
      name: "rot90_1/assert_positive/assert_less/Assert/Assert/data_0"
      op: "Const"
      device: "/device:CPU:0"
      attr {
        key: "dtype"
        value {
          type: DT_STRING
        }
      }
      attr {
        key: "value"
        value {
          tensor {
            dtype: DT_STRING
            tensor_shape {
            }
            string_val: "all dims of \'image.shape\' must be > 0."
          }
        }
      }
    }
    node_def {
      name: "rot90_1/assert_positive/assert_less/Assert/Assert"
      op: "Assert"
      input: "rot90_1/assert_positive/assert_less/All:output:0"
      input: "rot90_1/assert_positive/assert_less/Assert/Assert/data_0:output:0"
      device: "/device:CPU:0"
      attr {
        key: "T"
        value {
          list {
            type: DT_STRING
          }
        }
      }
      attr {
        key: "summarize"
        value {
          i: 3
        }
      }
    }
    node_def {
      name: "rot90_1/control_dependency"
      op: "Identity"
      input: "cond/Merge_1:output:0"
      input: "^rot90_1/assert_positive/assert_less/Assert/Assert"
      device: "/device:CPU:0"
      attr {
        key: "T"
        value {
          type: DT_FLOAT
        }
      }
      attr {
        key: "_class"
        value {
          list {
            s: "loc:@cond/Merge_1"
          }
        }
      }
    }
    node_def {
      name: "rot90_1/FloorMod/y"
      op: "Const"
      device: "/device:CPU:0"
      attr {
        key: "dtype"
        value {
          type: DT_INT32
        }
      }
      attr {
        key: "value"
        value {
          tensor {
            dtype: DT_INT32
            tensor_shape {
            }
            int_val: 4
          }
        }
      }
    }
    node_def {
      name: "rot90_1/FloorMod"
      op: "FloorMod"
      input: "random_uniform_1:output:0"
      input: "rot90_1/FloorMod/y:output:0"
      device: "/device:CPU:0"
      attr {
        key: "T"
        value {
          type: DT_INT32
        }
      }
    }
    node_def {
      name: "rot90_1/Equal/y"
      op: "Const"
      device: "/device:CPU:0"
      attr {
        key: "dtype"
        value {
          type: DT_INT32
        }
      }
      attr {
        key: "value"
        value {
          tensor {
            dtype: DT_INT32
            tensor_shape {
            }
            int_val: 1
          }
        }
      }
    }
    node_def {
      name: "rot90_1/Equal"
      op: "Equal"
      input: "rot90_1/FloorMod:z:0"
      input: "rot90_1/Equal/y:output:0"
      device: "/device:CPU:0"
      attr {
        key: "T"
        value {
          type: DT_INT32
        }
      }
    }
    node_def {
      name: "rot90_1/Equal_1/y"
      op: "Const"
      device: "/device:CPU:0"
      attr {
        key: "dtype"
        value {
          type: DT_INT32
        }
      }
      attr {
        key: "value"
        value {
          tensor {
            dtype: DT_INT32
            tensor_shape {
            }
            int_val: 2
          }
        }
      }
    }
    node_def {
      name: "rot90_1/Equal_1"
      op: "Equal"
      input: "rot90_1/FloorMod:z:0"
      input: "rot90_1/Equal_1/y:output:0"
      device: "/device:CPU:0"
      attr {
        key: "T"
        value {
          type: DT_INT32
        }
      }
    }
    node_def {
      name: "rot90_1/Equal_2/y"
      op: "Const"
      device: "/device:CPU:0"
      attr {
        key: "dtype"
        value {
          type: DT_INT32
        }
      }
      attr {
        key: "value"
        value {
          tensor {
            dtype: DT_INT32
            tensor_shape {
            }
            int_val: 3
          }
        }
      }
    }
    node_def {
      name: "rot90_1/Equal_2"
      op: "Equal"
      input: "rot90_1/FloorMod:z:0"
      input: "rot90_1/Equal_2/y:output:0"
      device: "/device:CPU:0"
      attr {
        key: "T"
        value {
          type: DT_INT32
        }
      }
    }
    node_def {
      name: "rot90_1/preds_c"
      op: "Pack"
      input: "rot90_1/Equal:z:0"
      input: "rot90_1/Equal_1:z:0"
      input: "rot90_1/Equal_2:z:0"
      device: "/device:CPU:0"
      attr {
        key: "N"
        value {
          i: 3
        }
      }
      attr {
        key: "T"
        value {
          type: DT_BOOL
        }
      }
      attr {
        key: "axis"
        value {
          i: 0
        }
      }
    }
    node_def {
      name: "rot90_1/Cast"
      op: "Cast"
      input: "rot90_1/preds_c:output:0"
      device: "/device:CPU:0"
      attr {
        key: "DstT"
        value {
          type: DT_INT32
        }
      }
      attr {
        key: "SrcT"
        value {
          type: DT_BOOL
        }
      }
      attr {
        key: "Truncate"
        value {
          b: false
        }
      }
    }
    node_def {
      name: "rot90_1/Const"
      op: "Const"
      device: "/device:CPU:0"
      attr {
        key: "dtype"
        value {
          type: DT_INT32
        }
      }
      attr {
        key: "value"
        value {
          tensor {
            dtype: DT_INT32
            tensor_shape {
              dim {
                size: 1
              }
            }
            int_val: 0
          }
        }
      }
    }
    node_def {
      name: "rot90_1/num_true_conds"
      op: "Sum"
      input: "rot90_1/Cast:y:0"
      input: "rot90_1/Const:output:0"
      device: "/device:CPU:0"
      attr {
        key: "T"
        value {
          type: DT_INT32
        }
      }
      attr {
        key: "Tidx"
        value {
          type: DT_INT32
        }
      }
      attr {
        key: "keep_dims"
        value {
          b: false
        }
      }
    }
    node_def {
      name: "rot90_1/n_true_conds"
      op: "Const"
      device: "/device:CPU:0"
      attr {
        key: "dtype"
        value {
          type: DT_INT32
        }
      }
      attr {
        key: "value"
        value {
          tensor {
            dtype: DT_INT32
            tensor_shape {
            }
            int_val: 1
          }
        }
      }
    }
    node_def {
      name: "rot90_1/LessEqual"
      op: "LessEqual"
      input: "rot90_1/num_true_conds:output:0"
      input: "rot90_1/n_true_conds:output:0"
      device: "/device:CPU:0"
      attr {
        key: "T"
        value {
          type: DT_INT32
        }
      }
    }
    node_def {
      name: "rot90_1/Assert/Const"
      op: "Const"
      device: "/device:CPU:0"
      attr {
        key: "dtype"
        value {
          type: DT_STRING
        }
      }
      attr {
        key: "value"
        value {
          tensor {
            dtype: DT_STRING
            tensor_shape {
            }
            string_val: "…"
          }
        }
      }
    }
    node_def {
      name: "rot90_1/Assert/AssertGuard/Switch"
      op: "Switch"
      input: "rot90_1/LessEqual:z:0"
      input: "rot90_1/LessEqual:z:0"
      device: "/device:CPU:0"
      attr {
        key: "T"
        value {
          type: DT_BOOL
        }
      }
    }
    node_def {
      name: "rot90_1/Assert/AssertGuard/switch_t"
      op: "Identity"
      input: "rot90_1/Assert/AssertGuard/Switch:output_true:0"
      device: "/device:CPU:0"
      attr {
        key: "T"
        value {
          type: DT_BOOL
        }
      }
    }
    node_def {
      name: "rot90_1/Assert/AssertGuard/switch_f"
      op: "Identity"
      input: "rot90_1/Assert/AssertGuard/Switch:output_false:0"
      device: "/device:CPU:0"
      attr {
        key: "T"
        value {
          type: DT_BOOL
        }
      }
    }
    node_def {
      name: "rot90_1/Assert/AssertGuard/pred_id"
      op: "Identity"
      input: "rot90_1/LessEqual:z:0"
      device: "/device:CPU:0"
      attr {
        key: "T"
        value {
          type: DT_BOOL
        }
      }
    }
    node_def {
      name: "rot90_1/Assert/AssertGuard/NoOp"
      op: "NoOp"
      input: "^rot90_1/Assert/AssertGuard/switch_t"
      device: "/device:CPU:0"
    }
    node_def {
      name: "rot90_1/Assert/AssertGuard/control_dependency"
      op: "Identity"
      input: "rot90_1/Assert/AssertGuard/switch_t:output:0"
      input: "^rot90_1/Assert/AssertGuard/NoOp"
      device: "/device:CPU:0"
      attr {
        key: "T"
        value {
          type: DT_BOOL
        }
      }
      attr {
        key: "_class"
        value {
          list {
            s: "loc:@rot90_1/Assert/AssertGuard/switch_t"
          }
        }
      }
    }
    node_def {
      name: "rot90_1/Assert/AssertGuard/Assert/data_0"
      op: "Const"
      input: "^rot90_1/Assert/AssertGuard/switch_f"
      device: "/device:CPU:0"
      attr {
        key: "dtype"
        value {
          type: DT_STRING
        }
      }
      attr {
        key: "value"
        value {
          tensor {
            dtype: DT_STRING
            tensor_shape {
            }
            string_val: "…"
          }
        }
      }
    }
    node_def {
      name: "rot90_1/Assert/AssertGuard/Assert"
      op: "Assert"
      input: "rot90_1/Assert/AssertGuard/Assert/Switch:output_false:0"
      input: "rot90_1/Assert/AssertGuard/Assert/data_0:output:0"
      input: "rot90_1/Assert/AssertGuard/Assert/Switch_1:output_false:0"
      device: "/device:CPU:0"
      attr {
        key: "T"
        value {
          list {
            type: DT_STRING
            type: DT_BOOL
          }
        }
      }
      attr {
        key: "summarize"
        value {
          i: 3
        }
      }
    }
    node_def {
      name: "rot90_1/Assert/AssertGuard/Assert/Switch"
      op: "Switch"
      input: "rot90_1/LessEqual:z:0"
      input: "rot90_1/Assert/AssertGuard/pred_id:output:0"
      device: "/device:CPU:0"
      attr {
        key: "T"
        value {
          type: DT_BOOL
        }
      }
      attr {
        key: "_class"
        value {
          list {
            s: "loc:@rot90_1/LessEqual"
          }
        }
      }
    }
    node_def {
      name: "rot90_1/Assert/AssertGuard/Assert/Switch_1"
      op: "Switch"
      input: "rot90_1/preds_c:output:0"
      input: "rot90_1/Assert/AssertGuard/pred_id:output:0"
      device: "/device:CPU:0"
      attr {
        key: "T"
        value {
          type: DT_BOOL
        }
      }
      attr {
        key: "_class"
        value {
          list {
            s: "loc:@rot90_1/preds_c"
          }
        }
      }
    }
    node_def {
      name: "rot90_1/Assert/AssertGuard/control_dependency_1"
      op: "Identity"
      input: "rot90_1/Assert/AssertGuard/switch_f:output:0"
      input: "^rot90_1/Assert/AssertGuard/Assert"
      device: "/device:CPU:0"
      attr {
        key: "T"
        value {
          type: DT_BOOL
        }
      }
      attr {
        key: "_class"
        value {
          list {
            s: "loc:@rot90_1/Assert/AssertGuard/switch_f"
          }
        }
      }
    }
    node_def {
      name: "rot90_1/Assert/AssertGuard/Merge"
      op: "Merge"
      input: "rot90_1/Assert/AssertGuard/control_dependency_1:output:0"
      input: "rot90_1/Assert/AssertGuard/control_dependency:output:0"
      device: "/device:CPU:0"
      attr {
        key: "N"
        value {
          i: 2
        }
      }
      attr {
        key: "T"
        value {
          type: DT_BOOL
        }
      }
    }
    node_def {
      name: "rot90_1/cond/Switch"
      op: "Switch"
      input: "rot90_1/Equal:z:0"
      input: "rot90_1/Equal:z:0"
      input: "^rot90_1/Assert/AssertGuard/Merge"
      device: "/device:CPU:0"
      attr {
        key: "T"
        value {
          type: DT_BOOL
        }
      }
    }
    node_def {
      name: "rot90_1/cond/switch_t"
      op: "Identity"
      input: "rot90_1/cond/Switch:output_true:0"
      device: "/device:CPU:0"
      attr {
        key: "T"
        value {
          type: DT_BOOL
        }
      }
    }
    node_def {
      name: "rot90_1/cond/switch_f"
      op: "Identity"
      input: "rot90_1/cond/Switch:output_false:0"
      device: "/device:CPU:0"
      attr {
        key: "T"
        value {
          type: DT_BOOL
        }
      }
    }
    node_def {
      name: "rot90_1/cond/pred_id"
      op: "Identity"
      input: "rot90_1/Equal:z:0"
      input: "^rot90_1/Assert/AssertGuard/Merge"
      device: "/device:CPU:0"
      attr {
        key: "T"
        value {
          type: DT_BOOL
        }
      }
    }
    node_def {
      name: "rot90_1/cond/ReverseV2/axis"
      op: "Const"
      input: "^rot90_1/Assert/AssertGuard/Merge"
      input: "^rot90_1/cond/switch_t"
      device: "/device:CPU:0"
      attr {
        key: "dtype"
        value {
          type: DT_INT32
        }
      }
      attr {
        key: "value"
        value {
          tensor {
            dtype: DT_INT32
            tensor_shape {
              dim {
                size: 1
              }
            }
            int_val: 2
          }
        }
      }
    }
    node_def {
      name: "rot90_1/cond/ReverseV2"
      op: "ReverseV2"
      input: "rot90_1/cond/ReverseV2/Switch:output_true:0"
      input: "rot90_1/cond/ReverseV2/axis:output:0"
      device: "/device:CPU:0"
      attr {
        key: "T"
        value {
          type: DT_FLOAT
        }
      }
      attr {
        key: "Tidx"
        value {
          type: DT_INT32
        }
      }
    }
    node_def {
      name: "rot90_1/cond/ReverseV2/Switch"
      op: "Switch"
      input: "rot90_1/control_dependency:output:0"
      input: "rot90_1/cond/pred_id:output:0"
      device: "/device:CPU:0"
      attr {
        key: "T"
        value {
          type: DT_FLOAT
        }
      }
      attr {
        key: "_class"
        value {
          list {
            s: "loc:@cond/Merge_1"
          }
        }
      }
    }
    node_def {
      name: "rot90_1/cond/transpose/perm"
      op: "Const"
      input: "^rot90_1/Assert/AssertGuard/Merge"
      input: "^rot90_1/cond/switch_t"
      device: "/device:CPU:0"
      attr {
        key: "dtype"
        value {
          type: DT_INT32
        }
      }
      attr {
        key: "value"
        value {
          tensor {
            dtype: DT_INT32
            tensor_shape {
              dim {
                size: 4
              }
            }
            tensor_content: "\000\000\000\000\002\000\000\000\001\000\000\000\003\000\000\000"
          }
        }
      }
    }
    node_def {
      name: "rot90_1/cond/transpose"
      op: "Transpose"
      input: "rot90_1/cond/ReverseV2:output:0"
      input: "rot90_1/cond/transpose/perm:output:0"
      device: "/device:CPU:0"
      attr {
        key: "T"
        value {
          type: DT_FLOAT
        }
      }
      attr {
        key: "Tperm"
        value {
          type: DT_INT32
        }
      }
    }
    node_def {
      name: "rot90_1/cond/cond/Switch"
      op: "Switch"
      input: "rot90_1/cond/cond/Switch/Switch:output_false:0"
      input: "rot90_1/cond/cond/Switch/Switch:output_false:0"
      input: "^rot90_1/Assert/AssertGuard/Merge"
      device: "/device:CPU:0"
      attr {
        key: "T"
        value {
          type: DT_BOOL
        }
      }
    }
    node_def {
      name: "rot90_1/cond/cond/Switch/Switch"
      op: "Switch"
      input: "rot90_1/Equal_1:z:0"
      input: "rot90_1/cond/pred_id:output:0"
      device: "/device:CPU:0"
      attr {
        key: "T"
        value {
          type: DT_BOOL
        }
      }
      attr {
        key: "_class"
        value {
          list {
            s: "loc:@rot90_1/Equal_1"
          }
        }
      }
    }
    node_def {
      name: "rot90_1/cond/cond/switch_t"
      op: "Identity"
      input: "rot90_1/cond/cond/Switch:output_true:0"
      device: "/device:CPU:0"
      attr {
        key: "T"
        value {
          type: DT_BOOL
        }
      }
    }
    node_def {
      name: "rot90_1/cond/cond/switch_f"
      op: "Identity"
      input: "rot90_1/cond/cond/Switch:output_false:0"
      device: "/device:CPU:0"
      attr {
        key: "T"
        value {
          type: DT_BOOL
        }
      }
    }
    node_def {
      name: "rot90_1/cond/cond/pred_id"
      op: "Identity"
      input: "rot90_1/cond/cond/Switch/Switch:output_false:0"
      input: "^rot90_1/Assert/AssertGuard/Merge"
      device: "/device:CPU:0"
      attr {
        key: "T"
        value {
          type: DT_BOOL
        }
      }
    }
    node_def {
      name: "rot90_1/cond/cond/ReverseV2/axis"
      op: "Const"
      input: "^rot90_1/Assert/AssertGuard/Merge"
      input: "^rot90_1/cond/cond/switch_t"
      device: "/device:CPU:0"
      attr {
        key: "dtype"
        value {
          type: DT_INT32
        }
      }
      attr {
        key: "value"
        value {
          tensor {
            dtype: DT_INT32
            tensor_shape {
              dim {
                size: 2
              }
            }
            tensor_content: "\001\000\000\000\002\000\000\000"
          }
        }
      }
    }
    node_def {
      name: "rot90_1/cond/cond/ReverseV2"
      op: "ReverseV2"
      input: "rot90_1/cond/cond/ReverseV2/Switch_1:output_true:0"
      input: "rot90_1/cond/cond/ReverseV2/axis:output:0"
      device: "/device:CPU:0"
      attr {
        key: "T"
        value {
          type: DT_FLOAT
        }
      }
      attr {
        key: "Tidx"
        value {
          type: DT_INT32
        }
      }
    }
    node_def {
      name: "rot90_1/cond/cond/ReverseV2/Switch"
      op: "Switch"
      input: "rot90_1/control_dependency:output:0"
      input: "rot90_1/cond/pred_id:output:0"
      device: "/device:CPU:0"
      attr {
        key: "T"
        value {
          type: DT_FLOAT
        }
      }
      attr {
        key: "_class"
        value {
          list {
            s: "loc:@cond/Merge_1"
          }
        }
      }
    }
    node_def {
      name: "rot90_1/cond/cond/ReverseV2/Switch_1"
      op: "Switch"
      input: "rot90_1/cond/cond/ReverseV2/Switch:output_false:0"
      input: "rot90_1/cond/cond/pred_id:output:0"
      device: "/device:CPU:0"
      attr {
        key: "T"
        value {
          type: DT_FLOAT
        }
      }
      attr {
        key: "_class"
        value {
          list {
            s: "loc:@cond/Merge_1"
          }
        }
      }
    }
    node_def {
      name: "rot90_1/cond/cond/cond/Switch"
      op: "Switch"
      input: "rot90_1/cond/cond/cond/Switch/Switch_1:output_false:0"
      input: "rot90_1/cond/cond/cond/Switch/Switch_1:output_false:0"
      input: "^rot90_1/Assert/AssertGuard/Merge"
      device: "/device:CPU:0"
      attr {
        key: "T"
        value {
          type: DT_BOOL
        }
      }
    }
    node_def {
      name: "rot90_1/cond/cond/cond/Switch/Switch"
      op: "Switch"
      input: "rot90_1/Equal_2:z:0"
      input: "rot90_1/cond/pred_id:output:0"
      device: "/device:CPU:0"
      attr {
        key: "T"
        value {
          type: DT_BOOL
        }
      }
      attr {
        key: "_class"
        value {
          list {
            s: "loc:@rot90_1/Equal_2"
          }
        }
      }
    }
    node_def {
      name: "rot90_1/cond/cond/cond/Switch/Switch_1"
      op: "Switch"
      input: "rot90_1/cond/cond/cond/Switch/Switch:output_false:0"
      input: "rot90_1/cond/cond/pred_id:output:0"
      device: "/device:CPU:0"
      attr {
        key: "T"
        value {
          type: DT_BOOL
        }
      }
      attr {
        key: "_class"
        value {
          list {
            s: "loc:@rot90_1/Equal_2"
          }
        }
      }
    }
    node_def {
      name: "rot90_1/cond/cond/cond/switch_t"
      op: "Identity"
      input: "rot90_1/cond/cond/cond/Switch:output_true:0"
      device: "/device:CPU:0"
      attr {
        key: "T"
        value {
          type: DT_BOOL
        }
      }
    }
    node_def {
      name: "rot90_1/cond/cond/cond/switch_f"
      op: "Identity"
      input: "rot90_1/cond/cond/cond/Switch:output_false:0"
      device: "/device:CPU:0"
      attr {
        key: "T"
        value {
          type: DT_BOOL
        }
      }
    }
    node_def {
      name: "rot90_1/cond/cond/cond/pred_id"
      op: "Identity"
      input: "rot90_1/cond/cond/cond/Switch/Switch_1:output_false:0"
      input: "^rot90_1/Assert/AssertGuard/Merge"
      device: "/device:CPU:0"
      attr {
        key: "T"
        value {
          type: DT_BOOL
        }
      }
    }
    node_def {
      name: "rot90_1/cond/cond/cond/transpose/perm"
      op: "Const"
      input: "^rot90_1/Assert/AssertGuard/Merge"
      input: "^rot90_1/cond/cond/cond/switch_t"
      device: "/device:CPU:0"
      attr {
        key: "dtype"
        value {
          type: DT_INT32
        }
      }
      attr {
        key: "value"
        value {
          tensor {
            dtype: DT_INT32
            tensor_shape {
              dim {
                size: 4
              }
            }
            tensor_content: "\000\000\000\000\002\000\000\000\001\000\000\000\003\000\000\000"
          }
        }
      }
    }
    node_def {
      name: "rot90_1/cond/cond/cond/transpose"
      op: "Transpose"
      input: "rot90_1/cond/cond/cond/transpose/Switch_1:output_true:0"
      input: "rot90_1/cond/cond/cond/transpose/perm:output:0"
      device: "/device:CPU:0"
      attr {
        key: "T"
        value {
          type: DT_FLOAT
        }
      }
      attr {
        key: "Tperm"
        value {
          type: DT_INT32
        }
      }
    }
    node_def {
      name: "rot90_1/cond/cond/cond/transpose/Switch"
      op: "Switch"
      input: "rot90_1/cond/cond/ReverseV2/Switch:output_false:0"
      input: "rot90_1/cond/cond/pred_id:output:0"
      device: "/device:CPU:0"
      attr {
        key: "T"
        value {
          type: DT_FLOAT
        }
      }
      attr {
        key: "_class"
        value {
          list {
            s: "loc:@cond/Merge_1"
          }
        }
      }
    }
    node_def {
      name: "rot90_1/cond/cond/cond/transpose/Switch_1"
      op: "Switch"
      input: "rot90_1/cond/cond/cond/transpose/Switch:output_false:0"
      input: "rot90_1/cond/cond/cond/pred_id:output:0"
      device: "/device:CPU:0"
      attr {
        key: "T"
        value {
          type: DT_FLOAT
        }
      }
      attr {
        key: "_class"
        value {
          list {
            s: "loc:@cond/Merge_1"
          }
        }
      }
    }
    node_def {
      name: "rot90_1/cond/cond/cond/ReverseV2/axis"
      op: "Const"
      input: "^rot90_1/Assert/AssertGuard/Merge"
      input: "^rot90_1/cond/cond/cond/switch_t"
      device: "/device:CPU:0"
      attr {
        key: "dtype"
        value {
          type: DT_INT32
        }
      }
      attr {
        key: "value"
        value {
          tensor {
            dtype: DT_INT32
            tensor_shape {
              dim {
                size: 1
              }
            }
            int_val: 2
          }
        }
      }
    }
    node_def {
      name: "rot90_1/cond/cond/cond/ReverseV2"
      op: "ReverseV2"
      input: "rot90_1/cond/cond/cond/transpose:y:0"
      input: "rot90_1/cond/cond/cond/ReverseV2/axis:output:0"
      device: "/device:CPU:0"
      attr {
        key: "T"
        value {
          type: DT_FLOAT
        }
      }
      attr {
        key: "Tidx"
        value {
          type: DT_INT32
        }
      }
    }
    node_def {
      name: "rot90_1/cond/cond/cond/Switch_1"
      op: "Switch"
      input: "rot90_1/cond/cond/cond/transpose/Switch:output_false:0"
      input: "rot90_1/cond/cond/cond/pred_id:output:0"
      device: "/device:CPU:0"
      attr {
        key: "T"
        value {
          type: DT_FLOAT
        }
      }
      attr {
        key: "_class"
        value {
          list {
            s: "loc:@cond/Merge_1"
          }
        }
      }
    }
    node_def {
      name: "rot90_1/cond/cond/cond/Merge"
      op: "Merge"
      input: "rot90_1/cond/cond/cond/Switch_1:output_false:0"
      input: "rot90_1/cond/cond/cond/ReverseV2:output:0"
      device: "/device:CPU:0"
      attr {
        key: "N"
        value {
          i: 2
        }
      }
      attr {
        key: "T"
        value {
          type: DT_FLOAT
        }
      }
    }
    node_def {
      name: "rot90_1/cond/cond/Merge"
      op: "Merge"
      input: "rot90_1/cond/cond/cond/Merge:output:0"
      input: "rot90_1/cond/cond/ReverseV2:output:0"
      device: "/device:CPU:0"
      attr {
        key: "N"
        value {
          i: 2
        }
      }
      attr {
        key: "T"
        value {
          type: DT_FLOAT
        }
      }
    }
    node_def {
      name: "rot90_1/cond/Merge"
      op: "Merge"
      input: "rot90_1/cond/cond/Merge:output:0"
      input: "rot90_1/cond/transpose:y:0"
      device: "/device:CPU:0"
      attr {
        key: "N"
        value {
          i: 2
        }
      }
      attr {
        key: "T"
        value {
          type: DT_FLOAT
        }
      }
    }
    ret {
      key: "rot90_1_cond_merge"
      value: "rot90_1/cond/Merge:output:0"
    }
    ret {
      key: "rot90_cond_merge"
      value: "rot90/cond/Merge:output:0"
    }
  }
  function {
    signature {
      name: "Dataset_from_generator_finalize_fn_33"
      input_arg {
        name: "arg0"
        type: DT_INT64
      }
      output_arg {
        name: "pyfunc"
        type: DT_INT64
      }
      description: "Wrapper for passing nested structures to and from tf.data functions."
      is_stateful: true
    }
    node_def {
      name: "PyFunc"
      op: "PyFunc"
      input: "arg0"
      device: "/device:CPU:0"
      attr {
        key: "Tin"
        value {
          list {
            type: DT_INT64
          }
        }
      }
      attr {
        key: "Tout"
        value {
          list {
            type: DT_INT64
          }
        }
      }
      attr {
        key: "token"
        value {
          s: "pyfunc_2"
        }
      }
    }
    ret {
      key: "pyfunc"
      value: "PyFunc:output:0"
    }
  }
}
versions {
  producer: 27
  min_consumer: 12
}
